modelNN.pth (torch_old, 249634 bytes, 10 tensors)

conv1.weight f4 [6, 3, 5, 5]
0	0x3dc85d42	0.097834125
1	0x3d4e9438	0.05043432
2	0x3dc03bf6	0.09386437
3	0xbd78aa26	-0.06070914
4	0x3d65347c	0.055958256
5	0xbd9f3684	-0.0777407
6	0xbd1dea66	-0.038553618
7	0x3de2092e	0.11036907
8	0xbbf88750	-0.00758449
9	0x3d8f007e	0.06982516
10	0x3dd7a09e	0.10528682
11	0x3c0a2fb0	0.008434221
12	0xbba87c50	-0.0051417723
13	0x3c1dceb0	0.009631798
14	0x3dafc43c	0.085823506
15	0xbd74add4	-0.059736088
16	0x3c643070	0.013927564
17	0x3d1518a0	0.036400437
18	0x3d1ddd48	0.03854111
19	0x3d8cac48	0.068687975
20	0x3d88ee56	0.06686084
21	0x3d8d084a	0.06886347
22	0x3db83470	0.08994377
23	0x3d9af9de	0.0756719
24	0xbd168a90	-0.036753237
25	0xbd3bbeb4	-0.045836166
26	0x3d3e64ac	0.046482727
27	0x3d1bfb7c	0.03808163
28	0x3d02736c	0.031848356
29	0xbd88f140	-0.0668664
30	0x3db0f26c	0.08639988
31	0x3cb8f5d8	0.022578165
32	0xbd0a3d46	-0.03374984
33	0x3d65a420	0.056064725
34	0xbbb9f4a0	-0.0056749135
35	0x3db141aa	0.086551026
36	0x3cb38bf8	0.021917328
37	0xbd91f309	-0.071264334
38	0x3d09acc4	0.033612028
39	0xbd79a5cd	-0.060949136
40	0x3de38b3a	0.1111054
41	0xbb416680	-0.0029510558
42	0x3dc05114	0.093904644
43	0x3db859e6	0.09001522
44	0x3da21f40	0.07916117
45	0x3d430720	0.047614217
46	0x3dd958ba	0.106126264
47	0x3de011ec	0.10940918
48	0xbdc6a088	-0.09698588
49	0xbdec0e8f	-0.11526214
50	0xbcc16db8	-0.023611888
51	0x3d3d073c	0.046149477
52	0xbdb14d4f	-0.086573236
53	0x3bd8cd60	0.0066162795
54	0xbdaecad7	-0.085347824
55	0xbd9cb41c	-0.07651541
56	0x3d0d528c	0.03450255
57	0x3cdca630	0.026934713
58	0xbda8e03c	-0.08245894
59	0xbd936304	-0.0719662
60	0xbd65ce90	-0.056105196
61	0xbd8de488	-0.069283545
62	0x3cb29388	0.021798864
63	0xbdcdd464	-0.10050276
64	0xbcc69b34	-0.024243928
65	0x3dc23cc6	0.09484248
66	0x3d7a6b7c	0.06113766
67	0xbd5026be	-0.050818197
68	0xbdb5233c	-0.08844611
69	0x3d161f94	0.03665121
70	0x3ca991c8	0.020699397
71	0xbd23263a	-0.039831378
72	0xbda7ee2c	-0.081997246
73	0xbc09b198	-0.008404158
74	0xbd892c27	-0.066978745
75	0x3d8a76b8	0.06760925
76	0xbcd3eee8	-0.025870755
77	0x3bd6c030	0.0065536723
78	0xbddaed35	-0.10689775
79	0xbd931329	-0.07181389
80	0xbdd449c0	-0.10365629
81	0x3dec3a0e	0.115345106
82	0x3d8f6284	0.07001212
83	0x3deaa380	0.114569664
84	0xbc169a40	-0.0091920495
85	0x3d914228	0.070926964
86	0x3d839874	0.064255625
87	0x3d0e2594	0.034703806
88	0x3d57716c	0.052598402
89	0xbcd94b34	-0.026525117
90	0x3de429ce	0.11140786
91	0xbd974a7d	-0.073872544
92	0xbdde8c48	-0.108666
93	0xbd53a4a8	-0.0516707
94	0x3d9f71e8	0.07785398
95	0xbd351da0	-0.044217706
96	0xbc207e90	-0.0097958
97	0x3debac60	0.11507487
98	0x3d002154	0.031281784
99	0xbd86947c	-0.0657129
100	0x3da4a818	0.08039874
101	0x3dcbe784	0.099562675
102	0x3db6acd8	0.08919686
103	0xbcb7c5e8	-0.022433236
104	0xbd831fa2	-0.06402518
105	0x3ccc09c8	0.024907008
106	0xbd57f6c2	-0.05272556
107	0xbd5cf1b1	-0.053941432
108	0x3dd3a40e	0.10334025
109	0x3b589880	0.0033049881
110	0xbc015600	-0.007894039
111	0xbbed46b0	-0.0072410926
112	0xbce42d64	-0.027853675
113	0xbd2139e4	-0.03936185
114	0xbdeb94a5	-0.11502961
115	0xbd362bba	-0.044475295
116	0x3d41342c	0.047168896
117	0x3c6b5310	0.014363065
118	0x3da1c670	0.07899177
119	0xbc6a9718	-0.01431825
120	0xbcd8efb8	-0.026481494
121	0xbc26aa58	-0.010172449
122	0xbd24181c	-0.040062055
123	0xbd35609e	-0.044281594
124	0x3becfe80	0.007232487
125	0x3d20ddac	0.039273903
126	0xbd18bd6c	-0.03729002
127	0x3db8a21a	0.090152934
128	0x3cd7d7f8	0.0263481
129	0xbc989b30	-0.018628687
130	0xbc9b9b20	-0.018994868
131	0xbdd10aed	-0.10207162
132	0x3cf42428	0.029802397
133	0xbd058d2a	-0.032605328
134	0xbd633373	-0.055468988
135	0x3de4870a	0.11158569
136	0x3dd356ac	0.10319266
137	0xbc786a40	-0.015162051
138	0xbd31efc0	-0.043441534
139	0x3d403e5c	0.04693447
140	0xbdab3ba1	-0.08360983
141	0x3d70a108	0.05874732
142	0x3ce1cc88	0.027563348
143	0xbdbee712	-0.09321417
144	0xbbb73530	-0.0055910572
145	0xbc84b394	-0.01619891
146	0x3cd983d0	0.02655211
147	0xbddd444a	-0.10804041
148	0x3da610bc	0.081086606
149	0x3dbada6a	0.091236904
150	0xbd33a544	-0.04385878
151	0xbd1ee02a	-0.038788
152	0x3d28763c	0.041128382
153	0xbdc9f292	-0.0986072
154	0x3d8a5eee	0.06756388
155	0x3c45a790	0.012063876
156	0x3ddfbe64	0.10924986
157	0x3d62f408	0.055408508
158	0xbc9df97c	-0.019284002
159	0xbd6f84a2	-0.058476098
160	0xbd6bae97	-0.05753955
161	0x3de65840	0.11247301
162	0x3dc259a0	0.09489751
163	0xbcb2bea4	-0.02181942
164	0x3da2b35c	0.07944366
165	0xbd291802	-0.04128266
166	0x3dda5c9c	0.10662195
167	0x3ce00210	0.027344733
168	0x3aa42e40	0.0012525991
169	0xbd942620	-0.07233834
170	0x3d0b130c	0.03395371
171	0xbd1dc5fe	-0.0385189
172	0x3d91e2f2	0.071233645
173	0x3d80c570	0.06287658
174	0x3dc37a34	0.09544793
175	0x3b9b1170	0.0047323033
176	0xbdc5372e	-0.09629665
177	0xbd751f22	-0.059844144
178	0x3d6014c8	0.05470732
179	0xbddbdb1d	-0.10735152
180	0xbd5389f4	-0.051645234
181	0x3daffe62	0.085934415
182	0xbc96f414	-0.018426932
183	0xbc48af10	-0.012248769
184	0x3cae9180	0.021309614
185	0x3d76f5c4	0.060292974
186	0xbdc10908	-0.09425551
187	0xbcd12938	-0.02553235
188	0x3d8464e8	0.06464559
189	0x3dd2e762	0.10298039
190	0xbc482d08	-0.012217768
191	0xbd07cf20	-0.033156514
192	0xbcee1bf8	-0.02906607
193	0x3d76f984	0.06029655
194	0xbd8dd1be	-0.06924771
195	0xbdc6905f	-0.09695505
196	0xbd7aca76	-0.061228238
197	0xbcfa55f0	-0.030558556
198	0xbd7a5537	-0.061116423
199	0xbddbbac4	-0.10728982
200	0xbdea8b05	-0.11452297
201	0xbc343008	-0.01099778
202	0x3d5455d0	0.05183965
203	0xbc5c4538	-0.013444237
204	0xbd9c9ec2	-0.07647468
205	0xbd287bca	-0.04113368
206	0xbdc1fc54	-0.09471956
207	0xbde779fa	-0.11302562
208	0x3ca142b8	0.019685134
209	0x3d0e7d24	0.034787312
210	0x3ddb5e4e	0.107113466
211	0xbd30caa8	-0.043162018
212	0xbdeaac41	-0.11458636
213	0xbb17d300	-0.0023166537
214	0xbdaa1282	-0.08304311
215	0x3beae1a0	0.00716801
216	0xbad61dc0	-0.001633577
217	0x3c6371b0	0.013882086
218	0x3da7ff22	0.082029596
219	0x3dbb0184	0.091311485
220	0xbd8349e8	-0.06410581
221	0xbdcafb3e	-0.09911202
222	0xbd9a2036	-0.07525675
223	0x3ddf341a	0.108986095
224	0x3dc21f28	0.09478599
225	0xbdc38b82	-0.095480934
226	0xbb476ee0	-0.0030431077
227	0xbdc1a0a9	-0.094544716
228	0xbad89400	-0.00165236
229	0x3d25faa4	0.040522233
230	0x3a4f5b00	0.00079099834
231	0x3d8becbe	0.06832264
232	0x3bd44f10	0.0064791515
233	0xbd7d700a	-0.061874427
234	0xbde2dec0	-0.110776424
235	0xbcf1fd7c	-0.029539816
236	0x3d3a0d18	0.045422643
237	0x3d0c40e8	0.034241587
238	0x3d23909c	0.039932832
239	0x3cc614a8	0.024179772
240	0x3c5f9aa0	0.013647705
241	0xbd6eb861	-0.058281306
242	0xbdcdc39e	-0.10047077
243	0xbc7c57b8	-0.015401773
244	0x3db8eb72	0.09029283
245	0xbdb5c8c1	-0.088761814
246	0xbdc0fc83	-0.09423163
247	0x3d922254	0.07135454
248	0xbc0dde08	-0.008658893
249	0xbd7fc5b6	-0.06244441
250	0x3c1e88c0	0.009676158
251	0x3dbb6bde	0.091514334
252	0x3ccb5f68	0.024825767
253	0xbd9d0422	-0.07666804
254	0x3cc1c6a0	0.023654282
255	0xbd93198e	-0.071826085

conv1.bias f4 [6]
0	0x3d5032fc	0.050829872
1	0xbdd7392f	-0.10508954
2	0xbddd0ead	-0.10793815
3	0xbdbd0d04	-0.09230998
4	0xbdc7d8ed	-0.09758172
5	0x3d732a2c	0.05936639

conv2.weight f4 [16, 6, 5, 5]
0	0x3ce8dcc0	0.028425574
1	0xbc7867f8	-0.015161507
2	0xbd35da64	-0.044397727
3	0x3d198918	0.03748426
4	0xbd109c34	-0.035305217
5	0xbd7275a0	-0.059194207
6	0xbd3f11a1	-0.04664767
7	0xbca05372	-0.01957104
8	0xbb90aad0	-0.0044148937
9	0xbcc753ea	-0.024332006
10	0xbd8ca6d8	-0.068677604
11	0xbd6a58e8	-0.057213694
12	0x3c519f60	0.012794346
13	0xbc950d04	-0.018194683
14	0x3d820886	0.06349282
15	0x3c6ce5d0	0.014459088
16	0x3d8b9738	0.06815952
17	0xbd958ac8	-0.07301861
18	0xbd48a4cb	-0.048985284
19	0x3d89b612	0.0672418
20	0x3d8ebd14	0.069696575
21	0xbd6fa0f9	-0.058503125
22	0xbd037cde	-0.032101505
23	0xbda2f97f	-0.07957744
24	0x3c89a268	0.016801074
25	0xbca555cc	-0.020182513
26	0x3da57fc2	0.080810085
27	0x3d050f8e	0.032485537
28	0x3c77fa88	0.015135415
29	0xbd8f0c42	-0.0698476
30	0xbca6a7aa	-0.02034362
31	0x3d58b4d4	0.052906826
32	0xbd586d15	-0.052838404
33	0x3d99295e	0.07478593
34	0xbd6ff90a	-0.05858711
35	0x3d8199c4	0.063281566
36	0xbd8202ee	-0.06348215
37	0xbd83109a	-0.06399651
38	0x3d8b4a50	0.06801283
39	0x3d5251a0	0.051347375
40	0xbd864404	-0.06555942
41	0x3d8889a0	0.06666875
42	0x3a75e600	0.0009380281
43	0x3c16c3b0	0.009201929
44	0x3d38bac4	0.04509999
45	0xbd3a0d90	-0.04542309
46	0x3d47fee0	0.048827052
47	0xbb833120	-0.004003659
48	0xbd4aeeec	-0.04954426
49	0xbd82f802	-0.0639496
50	0x3b09ecc0	0.0021045655
51	0x3d481e98	0.0488573
52	0xbd8a9f91	-0.06768716
53	0xbd20d240	-0.03926301
54	0x3c5d73d0	0.013516381
55	0xba30e300	-0.0006747693
56	0xbd8edcdc	-0.06975719
57	0x3d992d54	0.07479349
58	0xbd87133c	-0.065954655
59	0x3d87770e	0.06614505
60	0xbd9a4144	-0.0753198
61	0xbd473dad	-0.048642803
62	0xbd3aea87	-0.04563382
63	0x3da1593c	0.07878348
64	0xbd0a7650	-0.033804238
65	0x3d77b36c	0.060473844
66	0x3da25b66	0.07927589
67	0xbce8b088	-0.02840449
68	0x3d8cb330	0.06870115
69	0xbcb5fc86	-0.02221514
70	0x3d793fb4	0.060851768
71	0xbd386882	-0.04502154
72	0x3c287380	0.010281444
73	0x3d9c5110	0.07632649
74	0x3c67e1a8	0.014152922
75	0xbc826b80	-0.0159204
76	0xbd4b8e2e	-0.04969614
77	0x3d921a3a	0.071339086
78	0xbd5b276c	-0.053504393
79	0xbd8692b6	-0.06570952
80	0xbc262d28	-0.010142602
81	0xbc479158	-0.012180649
82	0xbd98d40b	-0.07462319
83	0x3d5ea474	0.054356053
84	0x3cdf4ddc	0.027258806
85	0x3d7fd7a8	0.062461525
86	0x3ced05b8	0.028933391
87	0xbcfb38b4	-0.030666687
88	0xbd3c30ec	-0.045945093
89	0x3d43b9a0	0.047784448
90	0x3d14f5f4	0.03636737
91	0x3d951d1c	0.07280943
92	0x3d68591c	0.056725606
93	0x3d0c8a1e	0.034311406
94	0xbd661dca	-0.056180753
95	0x3d1305ea	0.035894312
96	0x3d76cd98	0.060254663
97	0x3d8b8e12	0.06814207
98	0xbd6b5d51	-0.05746204
99	0xbd89646f	-0.06708609
100	0x3d0fe8a4	0.035133973
101	0x3ce148a0	0.02750045
102	0x3cd4f2e4	0.025994726
103	0xbd2310cf	-0.03981095
104	0x3d4b1600	0.049581528
105	0xbc938928	-0.018009737
106	0xbd218db5	-0.039441783
107	0xbc19dc38	-0.009390883
108	0xbd73e819	-0.059547517
109	0x3c266098	0.010154866
110	0xbd2b37fa	-0.04180143
111	0x3d537670	0.051626623
112	0xbda06563	-0.07831838
113	0x3cca3c5c	0.024686985
114	0xbd57031e	-0.052493207
115	0xbbeaea90	-0.0071690753
116	0xbd82022e	-0.06348072
117	0xbd1e8d2b	-0.038708847
118	0x3d163cfe	0.03667926
119	0x3d0c5320	0.03425896
120	0xbbba48d0	-0.0056849495
121	0x3d9d19d6	0.076709434
122	0xbd50e294	-0.05099733
123	0xbc0668f8	-0.008203737
124	0x3c52c0f0	0.012863383
125	0xbc08e470	-0.008355245
126	0x3d08c200	0.033388138
127	0x3d7e27c8	0.062049657
128	0x3cd678cc	0.026180647
129	0xbd449245	-0.047991056
130	0xbd171474	-0.03688474
131	0x3d273aa0	0.040827394
132	0xbd0ab434	-0.03386326
133	0x3da5860a	0.080822065
134	0xbd15366b	-0.03642885
135	0xbc87b7ac	-0.016567074
136	0x3d6ea270	0.05826038
137	0xbcf53968	-0.0299346
138	0xbd464171	-0.048402254
139	0x3d8fc856	0.07020633
140	0xbd03d344	-0.0321839
141	0x3cbd3b80	0.02309966
142	0xbd041aad	-0.032252003
143	0xbb654cc0	-0.0034988374
144	0x3d8acafa	0.06776996
145	0xbbe4c5f0	-0.006981604
146	0x3d91c2b2	0.07117213
147	0x3d3a1820	0.045433164
148	0xbc52a528	-0.012856759
149	0xbd7bc600	-0.061468124
150	0xbd118cf2	-0.035534807
151	0xbd208da7	-0.03919759
152	0xba773f00	-0.000943169
153	0xbd161a6a	-0.036646284
154	0x3c7d33e8	0.01545427
155	0xbcaf3b7c	-0.021390669
156	0x3da01aa2	0.0781758
157	0xbd8905de	-0.06690572
158	0x3c78e480	0.015191197
159	0x3d918d52	0.07107033
160	0xbcabdd54	-0.02097956
161	0xbd24d75f	-0.040244456
162	0xbd90545a	-0.07047339
163	0xbc87efc4	-0.016593821
164	0xbd8f6860	-0.0700233
165	0x3cf3fa60	0.029782474
166	0xbd9ce914	-0.076616436
167	0xbd1c797f	-0.038201805
168	0x3d867358	0.06564969
169	0x3d5879e0	0.052850604
170	0x3c439c70	0.011939153
171	0x3ced94d4	0.02900163
172	0xbcf2fc2e	-0.029661264
173	0x3d27e2b6	0.040987693
174	0x3d4feec0	0.0507648
175	0x3d7cc794	0.06171377
176	0xbd91d829	-0.071213074
177	0xbd9bd5ad	-0.07609115
178	0x3ce27cc0	0.027647376
179	0xbda2342d	-0.07920108
180	0xbc860cd4	-0.016363539
181	0xbd246788	-0.040137798
182	0x3d72cc10	0.05927664
183	0x3d9a55f6	0.07535927
184	0xbd852d26	-0.06502752
185	0x3cb15ab4	0.021649696
186	0x3d101f5e	0.035186164
187	0xbd16c91f	-0.036812898
188	0x3d7dfe90	0.062010348
189	0xbd2f0653	-0.04273064
190	0xbd096605	-0.03354456
191	0x3d3416bc	0.043966994
192	0xbd7d1782	-0.061789997
193	0x3d265e40	0.040617228
194	0xbd48493b	-0.048897963
195	0x3d9bb44c	0.07602748
196	0x3d90b3a0	0.07065511
197	0x3c8b7a30	0.017026037
198	0xbd3195d4	-0.043355778
199	0x3d7bed50	0.061505616
200	0xbd921bc7	-0.07134204
201	0xbd2597e2	-0.04042805
202	0x3cd438e0	0.025906026
203	0xba66cb80	-0.00088041276
204	0xbda5048d	-0.080575086
205	0x3d81a87e	0.063309655
206	0x3d145a10	0.036218703
207	0x3d94323c	0.07236144
208	0xbc980a80	-0.018559694
209	0xbd643b9c	-0.05572091
210	0x3d9a708a	0.075409964
211	0x3d972a24	0.073810846
212	0xbd927fe8	-0.071533024
213	0xbce5278c	-0.027972959
214	0x3d7c5a24	0.061609402
215	0x3c92bdec	0.017912827
216	0xbcee34f8	-0.029077992
217	0x3d176cb8	0.036968917
218	0x3d688ba4	0.056773797
219	0xbd064846	-0.03278377
220	0xbbeb6a70	-0.007184319
221	0x3c476c50	0.01217182
222	0xbd193607	-0.03740504
223	0xbd98f4f1	-0.07468594
224	0xbc85f088	-0.016350046
225	0xbc577630	-0.013150737
226	0xbcfd4ab6	-0.030919414
227	0x3d886fba	0.06661935
228	0x3d563ea4	0.052305833
229	0x3bbd7380	0.005781591
230	0x3b7aff20	0.003829904
231	0xbc961068	-0.01831837
232	0x3d7bcf14	0.061476782
233	0x3d80cca8	0.06289035
234	0xbd8bbe80	-0.06823444
235	0x3d024278	0.03180167
236	0xbd946403	-0.07245638
237	0xbd80c300	-0.06287193
238	0x3d8c808c	0.06860456
239	0x3d4e1b70	0.050319135
240	0x3bc14820	0.0058984905
241	0xbda1fb3f	-0.079092495
242	0xbd61ed7c	-0.055158123
243	0xbd3a5148	-0.045487672
244	0xbd046b59	-0.032328937
245	0xbcadeda0	-0.021231472
246	0x3be53eb0	0.0069959983
247	0x3d1675b0	0.03673333
248	0x3d2f878e	0.042853884
249	0x3da48654	0.080334336
250	0xbd3ff0f3	-0.046860646
251	0x3c44a860	0.012003034
252	0x3d647bd0	0.05578214
253	0x3b91bda0	0.004447654
254	0xbc7cb208	-0.015423305
255	0xbd2acb62	-0.041697867

conv2.bias f4 [16]
0	0xbccead5a	-0.025229145
1	0x3d599080	0.05311632
2	0x3d5256a4	0.05135216
3	0x3c8621b0	0.016373485
4	0x3d739edc	0.059477672
5	0xbc74fbb8	-0.014952593
6	0xbd08f770	-0.0334391
7	0xbc678440	-0.014130652
8	0x3d0e6d8e	0.03477245
9	0xbd84bacf	-0.064809434
10	0xbc8b97e0	-0.017040193
11	0x3d13c754	0.036078766
12	0x3c91644c	0.01774802
13	0xbd86f0ca	-0.065888956
14	0x3cee353c	0.029078119
15	0xbcfee28e	-0.031113889

fc1.weight f4 [120, 400]
0	0xbbf150c0	-0.0073643625
1	0x3d02c21d	0.031923402
2	0x3d281f51	0.04104549
3	0x3d0656b9	0.03279755
4	0x3ce9e9e6	0.028553914
5	0xbd14a9cb	-0.03629474
6	0x3be17b70	0.00688117
7	0x3d16ffc5	0.036865015
8	0xbcdc1d60	-0.026869476
9	0xbc5ed120	-0.013599664
10	0xbc861f04	-0.016372211
11	0x3c0c4ed8	0.00856372
12	0xbb0258b0	-0.0019889288
13	0xbd37eba2	-0.04490245
14	0x3d4c7969	0.049920473
15	0xbc294034	-0.010330249
16	0x3d2eaa0d	0.04264264
17	0x3d218837	0.039436545
18	0xbc8a0f30	-0.016852945
19	0x3ceec7f2	0.029148076
20	0x3d06d997	0.032922354
21	0x3cf57122	0.029961172
22	0x3d12e609	0.03586391
23	0xbcfeb463	-0.031091874
24	0xbd396b88	-0.045268565
25	0xbd3fa4d7	-0.046788063
26	0x3cf71252	0.030160103
27	0x3ce7264a	0.0282165
28	0x3c453d74	0.012038577
29	0xbb104350	-0.0022012778
30	0xbc24134c	-0.010014366
31	0xbcf40bf7	-0.029790862
32	0xbce79010	-0.028266937
33	0xbcd42ecd	-0.025901223
34	0x3c87925a	0.016549278
35	0xbc8bc364	-0.017060943
36	0x3c55bcbc	0.013045486
37	0xbd07cf86	-0.033156894
38	0xbd0c94ea	-0.034321703
39	0x3cd35d5a	0.02580135
40	0x3d2a2ab1	0.04154462
41	0xbc96e250	-0.018418461
42	0x3d48084b	0.048836034
43	0xbc426d80	-0.011866927
44	0x3d259cb1	0.040432636
45	0x3cc3de22	0.023909632
46	0x3c9afbc2	0.018918876
47	0x3d355e2f	0.044279274
48	0x3a9c8da0	0.0011944063
49	0xbc1378d4	-0.009000976
50	0xbd2c2143	-0.04202391
51	0x3c233b0c	0.009962808
52	0xbc2faed4	-0.010722835
53	0x3cc939c6	0.024563681
54	0x3c0ea880	0.008707166
55	0xbcbeb530	-0.023279756
56	0xbca91cd7	-0.020643635
57	0x3d2d751f	0.042348024
58	0xbc4ee6a0	-0.0126282275
59	0x3d25a4e1	0.040440444
60	0x3c97ab2e	0.018514242
61	0xbca21b33	-0.01978836
62	0xbc0dc608	-0.008653171
63	0x3c406614	0.011743087
64	0x3d0e58c1	0.03475261
65	0x3d33798d	0.04381709
66	0x39bc2e80	0.000358928
67	0xbc491ce0	-0.012274951
68	0x3c0e7368	0.008694507
69	0xbba14c98	-0.0049224608
70	0x3ca89152	0.020577107
71	0xbd2209be	-0.039560072
72	0x3be47b98	0.0069727413
73	0xbd216415	-0.039402086
74	0xbc96d0d4	-0.018410124
75	0xbd02ef0e	-0.03196626
76	0x3c3a2dd4	0.011363465
77	0xbbdf5c30	-0.0068164095
78	0x3c46f438	0.012143187
79	0xbcf39be7	-0.029737426
80	0xbd2c4aed	-0.042063642
81	0x3cb49cb6	0.022047382
82	0xbd136d75	-0.03599306
83	0xbd32c920	-0.04364884
84	0xbc89f0ac	-0.016838394
85	0xbc42cb58	-0.011889301
86	0xbca4248d	-0.02003696
87	0xbc676ea0	-0.014125496
88	0xbc4a9df8	-0.012366764
89	0xbca39cc7	-0.019972218
90	0xbd30a465	-0.04312553
91	0xbc8602cc	-0.016358756
92	0x3c63176c	0.013860565
93	0xbb33ef80	-0.0027455986
94	0x3d0445d5	0.03229316
95	0x3d135901	0.035973553
96	0xbd376608	-0.04477504
97	0xbb8c5628	-0.0042827316
98	0x3cfba8de	0.03072017
99	0xbba79f70	-0.005115442
100	0xbd4989f5	-0.04920383
101	0xbc035a00	-0.008017063
102	0xbcae3080	-0.021263361
103	0x3cc57a62	0.024106208
104	0xbc087aac	-0.0083300285
105	0x3bcb82b0	0.0062106475
106	0x3d207a39	0.03917906
107	0xbc21a020	-0.009864837
108	0x3d01dc71	0.03170437
109	0xbcbcca8a	-0.023045797
110	0x3d444661	0.04791868
111	0xbd446908	-0.047951728
112	0xbba6f328	-0.0050949045
113	0x3d016ca9	0.031597767
114	0xbd17256a	-0.036900915
115	0x3d383465	0.044971842
116	0xbc0d7668	-0.008634187
117	0x3b8f7928	0.0043784566
118	0xbbb1b850	-0.005423583
119	0xbcf35180	-0.029701948
120	0x3d03e14f	0.032197293
121	0xbc928810	-0.017887145
122	0x3cca7286	0.024712812
123	0x3b279030	0.002556812
124	0x3cc8c3e2	0.024507467
125	0xbcf56bf0	-0.029958695
126	0xbbca0200	-0.006164789
127	0x3c4b77ac	0.012418669
128	0xbcf4f2e3	-0.029900974
129	0x3d3447f7	0.044013944
130	0xbcc2b6ad	-0.023768747
131	0x3d2fdfb3	0.042937946
132	0xbb629080	-0.0034570992
133	0xbd196b6e	-0.03745597
134	0x3c089dd8	0.008338414
135	0x3c320438	0.010865264
136	0xbd099d9d	-0.033597577
137	0x3baa3ad8	0.005195003
138	0xbc702808	-0.014657982
139	0xbd3b51ad	-0.04573219
140	0xbd434b75	-0.047679383
141	0xbcdc8efa	-0.026923645
142	0xbca68df0	-0.020331353
143	0xbd0a4b8a	-0.033763446
144	0xbc00cd58	-0.007861458
145	0xbc1f9774	-0.009740699
146	0x3b011f50	0.0019702502
147	0x3d0ba021	0.034088258
148	0x3d0d1819	0.03444681
149	0x3ca405ee	0.020022359
150	0xbc128214	-0.008942146
151	0xbca07197	-0.019585414
152	0xbbe560e8	-0.0070000775
153	0x3c9bee6a	0.019034583
154	0xbca736ad	-0.020411814
155	0x3c2a8bec	0.010409337
156	0x3c82dc92	0.015974317
157	0x3ce73e62	0.028227989
158	0x3cc3dad2	0.023908053
159	0xbd2dbc0a	-0.042415656
160	0xbbc64070	-0.006050162
161	0xbb1e90e0	-0.002419524
162	0x3d42bc79	0.047543023
163	0x3d287ddb	0.04113565
164	0xbc87cd20	-0.016577303
165	0x3cd07b96	0.025449555
166	0xbc935a80	-0.01798749
167	0x3c28f388	0.010311969
168	0xbc38ac4c	-0.0112715475
169	0x3cec3c62	0.028837387
170	0xbc648720	-0.013948232
171	0x3d41b6db	0.047293525
172	0xbb1dd2a0	-0.002408184
173	0x3a09d2c0	0.00052575395
174	0xbd435add	-0.047694076
175	0xbccad7c3	-0.024761086
176	0x3d3d44ff	0.046208378
177	0x3cea3892	0.028591428
178	0xbd4b0210	-0.049562514
179	0xbd38c0df	-0.04510581
180	0x3d1b578b	0.037925284
181	0x3cb859b6	0.022503715
182	0xbd47bc45	-0.048763532
183	0x3d35674f	0.044287976
184	0xbbdcf850	-0.0067434683
185	0x3c5a1834	0.013311435
186	0x3d17b6cb	0.03703956
187	0x3d39a5ab	0.04532401
188	0x3cf944c6	0.030428302
189	0xbb968630	-0.004593633
190	0xbbb4fb50	-0.005523123
191	0xbd3257ef	-0.04354089
192	0x3d15a8a9	0.0365378
193	0xbc63a098	-0.013893269
194	0xbd3d47e2	-0.04621113
195	0xbd052610	-0.032507002
196	0xbcfa66b3	-0.030566549
197	0xbcbabd63	-0.022795385
198	0x3d47f0b7	0.048813548
199	0x3d396355	0.045260746
200	0xbd333bba	-0.04375813
201	0xbcc5590a	-0.024090309
202	0xbd4a64f5	-0.049412686
203	0x3b342c20	0.002749212
204	0x3bc69818	0.0060606115
205	0x3d07fca9	0.03319994
206	0x3aeddc00	0.001814723
207	0x3d10443b	0.03522132
208	0xbd067638	-0.032827586
209	0x3c6da66c	0.01450501
210	0x3c3a9d40	0.01139003
211	0x3c0e1268	0.008671381
212	0x3d1e36e1	0.038626555
213	0x3cfb456a	0.030672748
214	0xbcafd8a7	-0.021465613
215	0x3d3bb243	0.0458243
216	0xbd20fe8a	-0.039305247
217	0x3b52b760	0.0032152757
218	0x3c724904	0.014787916
219	0xbd34784f	-0.044060048
220	0x3cabfdfa	0.020995129
221	0x3d290ab9	0.04126999
222	0xbc68b580	-0.014203429
223	0x3d1ba411	0.037998263
224	0x3cf99496	0.03046636
225	0x3d4bd07d	0.049759377
226	0x3cf7d2d2	0.030251894
227	0xbcb540aa	-0.02212556
228	0xb9e4c680	-0.00043635443
229	0xbc8f6e36	-0.017508607
230	0xbc6f4074	-0.014602769
231	0xbd1cb402	-0.038257606
232	0x3d1d055b	0.038335185
233	0xbc92a7e6	-0.017902326
234	0xbb40e730	-0.0029434673
235	0x3c827b1e	0.015927847
236	0xbcb8aa30	-0.02254209
237	0xbca436d0	-0.020045668
238	0xbd0fe436	-0.03512975
239	0x3a624140	0.0008630939
240	0x3c30bf48	0.0107877925
241	0xbcacb090	-0.021080285
242	0x3a9f67a0	0.001216162
243	0x3d0b7c91	0.034054343
244	0x3ca2bcaa	0.019865353
245	0xbbded0b0	-0.00679978
246	0x3b9bf6b0	0.004759632
247	0x3d4083b1	0.04700059
248	0x3ce7bb7e	0.028287645
249	0x3cc35f5a	0.023849178
250	0xbd2db813	-0.042411875
251	0x3c19b6d8	0.009381972
252	0x3bd7caa8	0.006585438
253	0xbcaa234d	-0.020768786
254	0x3d3f2445	0.04666545
255	0x3d00f74d	0.031485844

fc1.bias f4 [120]
0	0xbc9ba7b7	-0.019000871
1	0x3c9c5b96	0.01908664
2	0x3bf602a8	0.007507641
3	0x3b484580	0.0030559003
4	0x3b24e860	0.002516292
5	0xbb322a30	-0.002718579
6	0x3d033c73	0.03204007
7	0x3d3b2c59	0.04569659
8	0xbcd16f20	-0.025565684
9	0xbc90f9a4	-0.017697163
10	0x3d2a1397	0.04152259
11	0x3ce0d216	0.027443927
12	0x3ba429b0	0.0050098523
13	0xbcd32c40	-0.025777936
14	0x3a7cae00	0.0009638965
15	0x3d2c5d1b	0.04208098
16	0x3c3169b8	0.010828428
17	0x3b545220	0.0032397583
18	0xbb0c8160	-0.0021439418
19	0xbc0ef214	-0.008724708
20	0x3cd4f492	0.025995526
21	0x3d187765	0.03722324
22	0x3b476980	0.0030427873
23	0x3d205db3	0.03915186
24	0x3d45723d	0.04820465
25	0xbaf39200	-0.001858294
26	0x3cd5199a	0.026013184
27	0xbcabd56a	-0.020975787
28	0x3d23cfe5	0.039993186
29	0xbd21d063	-0.039505374
30	0xbd3570bd	-0.04429697
31	0x3ced67b2	0.02898011
32	0x3cfcd552	0.030863438
33	0x3c2f9d28	0.010718621
34	0x3c6df724	0.014524255
35	0x3b9b3f28	0.0047377534
36	0x3c4bd558	0.012441002
37	0xbb7b6ba0	-0.003836371
38	0x3c235c48	0.009970732
39	0x3c87827e	0.016541716
40	0xbd40c1cb	-0.047059815
41	0xbb852b10	-0.0040639713
42	0xbd3f7e77	-0.046751466
43	0x3cf6b872	0.030117247
44	0x3d3997dd	0.045310844
45	0xbd1cb625	-0.038259644
46	0xbd15b285	-0.036547203
47	0x3d1513cb	0.03639583
48	0xbc5c16a8	-0.013433136
49	0x3d381be3	0.04494847
50	0x3cbe2186	0.023209345
51	0x3ce9d15e	0.028542217
52	0x3d148c6b	0.036266726
53	0xbcc3497a	-0.023838747
54	0x3cb12e86	0.02162863
55	0xbc3120c0	-0.010811031
56	0x3cfd75ca	0.030939955
57	0x3d331dbf	0.04372954
58	0x3c8f00de	0.017456468
59	0x3c300188	0.010742553
60	0x3cb93f02	0.022613052
61	0x3c54a5c4	0.012978975
62	0xbbb957d0	-0.00565622
63	0x3c2e16c8	0.010625549
64	0xbc848174	-0.01617501
65	0xbaf8d540	-0.0018984452
66	0x3d1a6929	0.037697945
67	0x3afc9a40	0.0019272044
68	0xbbb6bec0	-0.0055769384
69	0xbd23f2a8	-0.040026337
70	0xbcf3f353	-0.029779112
71	0xbc8f19d4	-0.01746837
72	0xbc9f50d7	-0.019447727
73	0xbd16b756	-0.036795937
74	0xbcb42b2d	-0.021993244
75	0xbce08293	-0.027406013
76	0x3d4a0d11	0.049328867
77	0x3d447769	0.04796544
78	0xbb8cdfe8	-0.0042991526
79	0xbd30f8d7	-0.043206062
80	0x3c14c978	0.009081237
81	0xbc0438ac	-0.008070152
82	0x3cf86762	0.030322734
83	0xbb775260	-0.0037738308
84	0xbbeab6b0	-0.0071628913
85	0xbb515680	-0.0031942427
86	0xbbe61d68	-0.0070225485
87	0xbc0c0b28	-0.008547582
88	0xbcb42e23	-0.021994656
89	0x3cf4aa8e	0.029866483
90	0xbd04052e	-0.032231502
91	0x3d247259	0.040148113
92	0x3d26d06d	0.040726114
93	0xbd1f5342	-0.03889776
94	0xbc7e5dd4	-0.0155253
95	0xbd332ec2	-0.043745764
96	0x3bbfffc0	0.005859345
97	0xbbe49080	-0.0069752336
98	0xbd176a3b	-0.036966544
99	0xbcd48693	-0.025943076
100	0xbd311ee0	-0.043242335
101	0x3cffef76	0.031242114
102	0xbc7a75a0	-0.015286833
103	0x3ca91182	0.020638231
104	0x3d0b99f1	0.034082357
105	0xbd3be888	-0.045876056
106	0x3cf096a6	0.02936871
107	0x3cc75aa2	0.02433521
108	0xbcc55d33	-0.024092292
109	0x3bdada68	0.006678868
110	0xbc95c5bc	-0.018282764
111	0xbd131fa6	-0.035918854
112	0x3c9358c6	0.017986666
113	0x3c678624	0.014131103
114	0xbc82d2c4	-0.015969642
115	0xbd39ff32	-0.04540939
116	0xbd0de212	-0.034639426
117	0x3d323563	0.043507945
118	0x3d045f61	0.032317523
119	0x3b8232a8	0.003973324

fc2.weight f4 [84, 120]
0	0x3da7a3ce	0.0818554
1	0x3d0d49d0	0.03449422
2	0xbd20320b	-0.039110225
3	0xbdadd3a6	-0.08487634
4	0xbcd3f188	-0.025872007
5	0xbd678e30	-0.056532085
6	0x3c6efee8	0.014587142
7	0xbc013400	-0.007885933
8	0x3da1c14e	0.07898198
9	0xbcda7aa4	-0.026669808
10	0x3bade470	0.005306773
11	0xbd9ccfce	-0.07656823
12	0xbc11abb0	-0.008891031
13	0x3cd4bd9c	0.025969319
14	0xbd2a683b	-0.04160331
15	0xbd15388e	-0.036430888
16	0xbd8e0eef	-0.06936442
17	0x3c161478	0.009160154
18	0x3da634ca	0.081155375
19	0x3d050658	0.032476753
20	0x3c1f9578	0.009740226
21	0x3ce265b0	0.027636379
22	0x3d96a0e0	0.07354903
23	0x3b50f3e0	0.0031883642
24	0xbda0816a	-0.07837184
25	0xbd96e6f9	-0.07368273
26	0x3db666c4	0.0890632
27	0xbd82bd54	-0.06383768
28	0xbdaa6629	-0.08320267
29	0x3d9826f6	0.07429306
30	0xbd2a45d6	-0.041570507
31	0xbd6f16c6	-0.058371328
32	0x3cba0560	0.022707641
33	0x3a332500	0.00068338215
34	0xbc878d00	-0.016546726
35	0xbbf53f70	-0.007484369
36	0x3caa5fd4	0.020797648
37	0xbc963d04	-0.018339641
38	0xbc53fbc0	-0.01293844
39	0x3da3bb7a	0.07994743
40	0x3db6c628	0.08924514
41	0x3d19cfa8	0.037551552
42	0x3c1905e8	0.009339787
43	0x3d622db4	0.055219367
44	0xbd25a237	-0.040437903
45	0xbbccf4a0	-0.0062547475
46	0x3da6ff1a	0.081541255
47	0x3c44e320	0.012017041
48	0x3ce39c88	0.0277846
49	0xbcee9600	-0.02912426
50	0xbd2a6d49	-0.04160813
51	0xbd1d66ef	-0.038428243
52	0x3be72f20	0.0070551783
53	0xbc8208d0	-0.015873343
54	0xbd74a35c	-0.059726104
55	0xbd845b2b	-0.064627014
56	0x3ba7a7c0	0.005116433
57	0x3d83ec9c	0.06441614
58	0x3d647d80	0.05578375
59	0x3d565c58	0.05233416
60	0x3d620b74	0.055186704
61	0xbd22a881	-0.03971148
62	0x39493000	0.00019186735
63	0xbd277670	-0.040884435
64	0xbd8af508	-0.06785017
65	0x3d8e9524	0.0696204
66	0xbd23787b	-0.03990982
67	0xbcd51cf0	-0.026014775
68	0xbd853bdd	-0.06505559
69	0x3b9655c0	0.004587859
70	0xbdabc013	-0.083862446
71	0x3da1106a	0.07864459
72	0xbd94778f	-0.072493665
73	0xbd21e316	-0.039523207
74	0xbcd2e9f8	-0.02574633
75	0x3d8d36dc	0.06895229
76	0x3935b000	0.0001732707
77	0xbd7cc0c2	-0.061707266
78	0xbd9e19a9	-0.07719738
79	0x3cc64888	0.024204507
80	0xbd9f7414	-0.07785812
81	0xbd9c1e8d	-0.076230146
82	0x3b9a5aa0	0.0047105104
83	0xbd410761	-0.047126178
84	0x3d8fe9fc	0.07027051
85	0xbcbae190	-0.022812635
86	0xbc4ac738	-0.012376599
87	0x3d5e63c8	0.054294378
88	0xbc238160	-0.009979576
89	0xbd7b0d9a	-0.06129227
90	0xbd8bac4f	-0.06819975
91	0xbd78d46b	-0.060749453
92	0xbd5c8a2e	-0.053842716
93	0xbd5e3258	-0.05424723
94	0xbd7c4cd6	-0.061596714
95	0xbd658628	-0.056036144
96	0xbd86615e	-0.0656154
97	0x3db6f6f4	0.08933821
98	0xbd3f1c76	-0.046658
99	0xbc77f680	-0.015134454
100	0xbbd690e0	-0.006548032
101	0x3c0139e8	0.007887341
102	0x3cd25bbc	0.025678508
103	0x3d899f10	0.06719792
104	0xbd9cf546	-0.0766397
105	0xbd6f29a0	-0.058389306
106	0x3d6faf54	0.058516815
107	0x3d89ac14	0.067222744
108	0x3c0ecad0	0.008715346
109	0xbd53c444	-0.051700845
110	0x3d06a608	0.032873183
111	0xbb0b10c0	-0.00212197
112	0xbd43fa13	-0.04784591
113	0x3d969bb2	0.07353915
114	0xbd6db527	-0.05803409
115	0x3d9b9164	0.075960904
116	0xbdb3e5fa	-0.08784099
117	0xbc8dee04	-0.017325409
118	0x3d83ea56	0.064411804
119	0xbcd773b4	-0.026300289
120	0xbd2def2c	-0.04246442
121	0xbca355a0	-0.01993829
122	0x3d489320	0.048968434
123	0x3cdbf2c0	0.02684915
124	0xbd87acce	-0.06624757
125	0x3c64c4a0	0.013962895
126	0x3c900694	0.017581262
127	0x3da3459e	0.07972263
128	0x3c921a78	0.017834887
129	0xbc9da500	-0.019243717
130	0x3db5d9e0	0.08879447
131	0xbd1805ea	-0.037115015
132	0xbd1b5601	-0.037923817
133	0x3d35f688	0.044424564
134	0xbc83ee44	-0.016104825
135	0x3d962120	0.07330537
136	0x3c300de8	0.010745503
137	0x3d32a234	0.04361172
138	0x3da4bac2	0.08043434
139	0x3d8380c6	0.06421046
140	0xbd3e6938	-0.046487063
141	0x3d646678	0.055761784
142	0xbd3446ae	-0.044012718
143	0xbd605c1a	-0.054775335
144	0x3d59bbec	0.053157732
145	0x3cb23df8	0.021758065
146	0x3c90cba0	0.017675221
147	0x3da74880	0.08168125
148	0x3d9d6c06	0.076866195
149	0xbba58010	-0.0050506666
150	0xbd3eed4d	-0.046613026
151	0x3db54fa6	0.08853082
152	0xbdb6f0a7	-0.089326195
153	0xbcd67a48	-0.026181355
154	0xbd05ee1c	-0.032697782
155	0xbd9cf350	-0.07663596
156	0xbc7999a0	-0.015234381
157	0x3cbd050c	0.023073696
158	0x3da70fd8	0.08157319
159	0xbdb65be6	-0.08904247
160	0xbd695bdf	-0.05697238
161	0xbd1b9766	-0.03798618
162	0xbd4153e4	-0.047199145
163	0x3d7432e8	0.05961886
164	0x3d96a3ca	0.07355459
165	0x3d097252	0.03355629
166	0x3a462700	0.0007558912
167	0xbc1c7108	-0.009548433
168	0xbd5de09c	-0.054169282
169	0x3d29d22c	0.0414602
170	0xbc61c268	-0.01377926
171	0xbd389221	-0.045061234
172	0x3db68762	0.08912541
173	0xbba33600	-0.0049808025
174	0x3c1f4cc8	0.009722896
175	0x3b176600	0.0023101568
176	0x3d69fd48	0.057126313
177	0xbdb90455	-0.090340294
178	0xbca80484	-0.020509966
179	0x3da20f5c	0.07913086
180	0xbd401b38	-0.046900958
181	0x3d88d39a	0.06680985
182	0x3a59cc00	0.00083082914
183	0x3d525058	0.051346153
184	0xbdb138fe	-0.086534485
185	0x3b947990	0.004531093
186	0x3ca0befc	0.019622318
187	0x3d299a9c	0.041407213
188	0xbcb5be34	-0.022185422
189	0xbd071bbb	-0.03298543
190	0x3dae8bda	0.08522768
191	0xbd6b8936	-0.0575039
192	0x3d9b56c0	0.075849056
193	0xbd152a39	-0.03641722
194	0xbc28be30	-0.0102992505
195	0x3b8eb720	0.0043553263
196	0x3d2e2c74	0.042522863
197	0x3c2e02b8	0.010620765
198	0xbdb6b0dd	-0.08920453
199	0x3d74f970	0.059808195
200	0x3cb46ea0	0.022025406
201	0xbc3691e8	-0.011143185
202	0x3d79cfb4	0.060989097
203	0xbc412280	-0.011788011
204	0xbda51e42	-0.08062412
205	0x3c810c10	0.015752822
206	0x3d9fa130	0.07794416
207	0x3d4c24cc	0.04983978
208	0x3ca6122c	0.020272337
209	0x3d9b3d88	0.075800955
210	0xbd23ebaf	-0.040019687
211	0x3cfff980	0.0312469
212	0xbc4b9720	-0.012426168
213	0x3da8e8ba	0.08247514
214	0x3d357118	0.044297308
215	0xbd472fe0	-0.04862964
216	0x3d9d7b32	0.07689513
217	0xbd22a5f3	-0.039709043
218	0xbd657c15	-0.056026537
219	0x3da2218a	0.07916553
220	0x3cf2f250	0.02965656
221	0xbd31ce0a	-0.043409385
222	0x3d3c5bec	0.0459861
223	0x3c6ff6c0	0.014646232
224	0xbd6a3de9	-0.05718795
225	0xbd3b0e7e	-0.045668118
226	0x3d1caa14	0.038248137
227	0x3dace1ac	0.08441481
228	0x3d4eea78	0.050516576
229	0x3d8597be	0.06523083
230	0x3db24f1a	0.08706494
231	0xbd593a54	-0.05303414
232	0xbd42e9a9	-0.047586117
233	0x3cfd04c0	0.030886054
234	0xbb32ac00	-0.0027263165
235	0x3dac4426	0.08411436
236	0xbd9ab161	-0.075533636
237	0xbc404288	-0.011734612
238	0x3bac20a0	0.0052529126
239	0x3d879978	0.06621069
240	0x3d333394	0.04375036
241	0x3d989992	0.07451166
242	0xbd8794e0	-0.066201925
243	0x3cb15314	0.02164606
244	0xbd8bf5ca	-0.0683399
245	0x3c07dfd0	0.008293107
246	0x3d4e2918	0.05033216
247	0xbdab8bc3	-0.08376267
248	0x3daece82	0.08535482
249	0xbd2565e0	-0.04038036
250	0x3c3736b8	0.01118248
251	0x3d8f0054	0.069824845
252	0x3d0b92e8	0.034075648
253	0xbbd3ab20	-0.0064596087
254	0xbd9d9268	-0.076939404
255	0x3d8d05b4	0.068858534

fc2.bias f4 [84]
0	0xbc9d4474	-0.01919768
1	0x3d246464	0.040134802
2	0x3d8e8972	0.06959809
3	0x3db2e28e	0.08734618
4	0xbd835f6c	-0.06414685
5	0x3d784214	0.060609892
6	0x3d29dddc	0.041471347
7	0x3ca032d8	0.019555494
8	0x3d78be68	0.06072846
9	0xbc9934cc	-0.018701933
10	0x3d857090	0.0651561
11	0xbdb0f229	-0.086399384
12	0x3d7be920	0.061501622
13	0x3b8fd320	0.0043891817
14	0xbd04465d	-0.032293666
15	0x3d19f5d0	0.03758794
16	0xbd093d3b	-0.03350566
17	0x3db32024	0.08746365
18	0xbd9c6b50	-0.07637656
19	0xbd615846	-0.055015825
20	0x3d7c1950	0.061547577
21	0x3d4270ec	0.047470972
22	0xbd3a93dc	-0.045551166
23	0x3ce750fc	0.028236859
24	0xbd8af5c6	-0.06785159
25	0xbca48934	-0.020084955
26	0xbd259a00	-0.04043007
27	0x3cc23f58	0.023711845
28	0x3dadd718	0.084882915
29	0x3ce590a4	0.028023072
30	0x3d130504	0.035893455
31	0xbd4a7c93	-0.04943521
32	0x3d6f4780	0.058417797
33	0x3d7a0980	0.061044216
34	0x3d670e00	0.056409836
35	0x3db2ac8c	0.08724317
36	0xbdb9faae	-0.090810165
37	0xbd321ba7	-0.043483403
38	0x3da6887c	0.08131501
39	0x3d981dfa	0.074275926
40	0xbcd5b37c	-0.026086561
41	0x3ca5bd44	0.02023185
42	0xbd214cb9	-0.03937981
43	0xbda3dad6	-0.08000724
44	0x3da4836c	0.08032879
45	0xbc0ded38	-0.008662514
46	0xbd2ad18d	-0.04170375
47	0xbd5477f7	-0.05187222
48	0x3d929226	0.07156782
49	0xbca65f78	-0.020309195
50	0x3bcb41d0	0.006202914
51	0x3da6539e	0.081214175
52	0xbd07798d	-0.033074904
53	0x3c3acef0	0.011401877
54	0x3d9f79b8	0.07786888
55	0x3d0e1588	0.034688503
56	0x3d01bbcc	0.031673238
57	0x3db6ebc6	0.08931689
58	0xbdba2f19	-0.090910144
59	0xbbfb05a0	-0.0076605827
60	0xbd8509da	-0.0649602
61	0x3ce32594	0.02772788
62	0x3c9ea1c4	0.019364245
63	0xbdba816e	-0.09106718
64	0xbd6d1d1d	-0.057889093
65	0x3da3cc6a	0.07997973
66	0x3d5bce54	0.053663567
67	0x3cc5ac1c	0.02412992
68	0x3da3ad54	0.07992044
69	0xbd7cc80c	-0.061714217
70	0x3da3f3be	0.080054745
71	0xbd959982	-0.0730467
72	0x3cedca8c	0.029027246
73	0x3d36b260	0.044603705
74	0xbc333f68	-0.01094041
75	0xbb302ea0	-0.002688326
76	0x3dabc560	0.08387256
77	0xbd359259	-0.04432902
78	0x3b8159c0	0.0039474666
79	0xbba9f560	-0.0051867217
80	0xbcad7f74	-0.021178938
81	0xbd882056	-0.066467926
82	0xbc1ec310	-0.009690061
83	0x3bdb74a0	0.0066972524

fc3.weight f4 [10, 84]
0	0xbd6f6997	-0.058450308
1	0x3dd3e5cd	0.103465654
2	0xbc7a6ed8	-0.015285216
3	0xbdb5c72a	-0.08875878
4	0xbd8f01e6	-0.06982784
5	0x3dd84221	0.10559488
6	0x3d34cc6a	0.044140257
7	0x39b05400	0.0003363192
8	0x3cfa1bbc	0.030530803
9	0x3dd8e71b	0.10590955
10	0x3d344a4e	0.044016175
11	0x3d4ddd56	0.05025991
12	0xbd7e8ece	-0.062147908
13	0xbbbfb9d0	-0.005851008
14	0x3d0dd42a	0.034626164
15	0x3d1377d6	0.036002956
16	0xbad75000	-0.001642704
17	0x3d91d49d	0.07120631
18	0x3cbc857c	0.023012869
19	0xbddbdd02	-0.10735513
20	0x3d0a6596	0.033788286
21	0x3d724c02	0.059154518
22	0x3cb25104	0.021767147
23	0x3c9f6a04	0.019459732
24	0xbd1035c6	-0.035207532
25	0x3d38d7fa	0.045127846
26	0x3a51cc80	0.000800319
27	0x3d14de4a	0.036344804
28	0xbd11e65e	-0.035620086
29	0x3d3bdc46	0.045864366
30	0x3dbda1fb	0.09259411
31	0x3cb01a44	0.0214969
32	0x3dabfcbd	0.083978154
33	0xbbb9c3e0	-0.005669102
34	0x3c4c8610	0.012483135
35	0xbdc7cd62	-0.097559705
36	0xbda94188	-0.08264452
37	0x3c97d514	0.01853422
38	0xbdb7a29a	-0.08966561
39	0xbcef9678	-0.029246554
40	0xbd48278a	-0.048865832
41	0x3d0dc3ce	0.034610562
42	0x3c00f2a0	0.007870346
43	0x3c98d124	0.018654414
44	0x3d80d81b	0.06291219
45	0xbd395676	-0.04524847
46	0x3dbd7945	0.09251646
47	0x3cadaa24	0.021199293
48	0x3da27a61	0.07933498
49	0xbd01c874	-0.031685308
50	0x3d6e4ee2	0.058180697
51	0xbc1cc2e0	-0.009567946
52	0xbd9a2204	-0.07526019
53	0x3bbee770	0.0058259293
54	0xbd8325a4	-0.06403664
55	0xbda74d00	-0.081689835
56	0xbdc44065	-0.09582595
57	0xbc263d08	-0.010146387
58	0x3d38326e	0.04496997
59	0x3db93f7b	0.09045311
60	0xbcab3b5c	-0.020902328
61	0x3b19c620	0.002346404
62	0x3bee97d0	0.007281281
63	0xbc96d5b8	-0.018412456
64	0x3bda5f30	0.0066641793
65	0xba814ec0	-0.0009865388
66	0xbd9cfd7e	-0.07665537
67	0xbda473ca	-0.080298975
68	0xbdab3568	-0.08359796
69	0x3c9c4e5c	0.019080333
70	0x3cb7632c	0.022386156
71	0x3cd31964	0.025768943
72	0xbd5670ab	-0.052353542
73	0x3c45cfe8	0.0120734945
74	0xbc5e7298	-0.013577126
75	0x3d49f1ca	0.049302854
76	0x3d880d61	0.06643177
77	0x3d04637e	0.032321446
78	0xbdbc99c8	-0.09209019
79	0xbdacdd9d	-0.08440707
80	0x3bcfe410	0.006344326
81	0xbdc4fe5c	-0.09618828
82	0x3d790a62	0.060800917
83	0x3be98d30	0.0071274266
84	0xbc82279c	-0.015888028
85	0xbdb3192f	-0.08745038
86	0x3d2544fa	0.040348984
87	0xbca25a30	-0.019818395
88	0xbd334218	-0.043764204
89	0xbd3e3cdc	-0.04644476
90	0x3dc65645	0.09684423
91	0x3d910191	0.07080377
92	0xbd8258f0	-0.0636462
93	0x3d1abfe6	0.037780665
94	0xbcec62f4	-0.028855778
95	0xbd440f8c	-0.04786639
96	0x3dcaeb03	0.09908106
97	0x3dbc6f57	0.09200924
98	0x3db37717	0.08762949
99	0x3da42219	0.08014316
100	0xbd8fecaa	-0.07027562
101	0x3a944f40	0.0011315122
102	0x3dc3e339	0.09564824
103	0xbdc0d9c6	-0.09416537
104	0xbccc6fe0	-0.02495569
105	0x3b607220	0.0034247711
106	0x3c2032e0	0.009777755
107	0x3d5c9da6	0.053861283
108	0xbdc30945	-0.095232524
109	0xba770680	-0.0009423271
110	0xbd996a12	-0.074909344
111	0xbdca3a5e	-0.09874414
112	0xba2c5e80	-0.0006575361
113	0xbcde00c8	-0.027099982
114	0x3dac87df	0.08424353
115	0xbcd5dd90	-0.026106626
116	0xbd00fe50	-0.03149253
117	0xbc1ed3a0	-0.00969401
118	0xbdaf622d	-0.085636474
119	0x3d9bea77	0.0761308
120	0xbd620e4b	-0.055189412
121	0x3c9139bc	0.017727725
122	0x3d9d4d07	0.076807074
123	0x3d89e28f	0.06732666
124	0x3d804897	0.062638454
125	0xbd7f9a07	-0.06240275
126	0x3da37e8b	0.079831205
127	0x3dc1371d	0.0943434
128	0x3dc0d17d	0.09414957
129	0xbddd782b	-0.10813936
130	0x3cf4fb8c	0.029905103
131	0xbd3a9e84	-0.04556133
132	0xbd812d3b	-0.06307455
133	0x3d0135e6	0.031545542
134	0xbd3561b0	-0.044282615
135	0xbdafc4ae	-0.085824355
136	0x3d47524e	0.048662476
137	0xbc755b80	-0.014975429
138	0x3d69b652	0.05705864
139	0x3d038462	0.032108672
140	0x3cf45294	0.029824533
141	0x3d57d3da	0.05269227
142	0x3d820321	0.06348253
143	0x3da553f1	0.08072651
144	0x3bc18360	0.0059055537
145	0x3dc5858b	0.09644612
146	0xbd79d2c5	-0.06099202
147	0x3c727090	0.014797345
148	0xbd2ef562	-0.042714484
149	0x3d823f51	0.06359733
150	0x3d97ad3d	0.074060895
151	0x3dada6a1	0.084790476
152	0xbcfabcd8	-0.030607626
153	0x3ccbd2a4	0.024880715
154	0xbd9cba2f	-0.07652699
155	0x3da96e95	0.08273045
156	0x3d75203e	0.0598452
157	0x3da176ff	0.07884025
158	0xbcc2d5ec	-0.023783647
159	0x3cd3607c	0.025802843
160	0xbd5db53f	-0.054127928
161	0x3d2e0aea	0.042490877
162	0x3c3a9520	0.011388093
163	0x3cc89a94	0.024487771
164	0xbd3006de	-0.0429753
165	0xbbdf04e0	-0.006806001
166	0xbdd19c75	-0.1023492
167	0xbd93ef6a	-0.07223399
168	0xbb154620	-0.0022777393
169	0x3cc1f4fc	0.023676388
170	0xbd6bb11d	-0.057541955
171	0xbda9be17	-0.0828821
172	0x3dbd4045	0.09240774
173	0x3c5935c0	0.013257444
174	0x3d25633e	0.040377848
175	0xbd155b86	-0.036464237
176	0x3c8f0c1c	0.017461829
177	0x3cb05ec4	0.021529563
178	0x3c09ab10	0.008402601
179	0x3d42cf9a	0.047561266
180	0xbd86fee5	-0.06591586
181	0x3dcf7d29	0.10131294
182	0x3d21d88a	0.03951315
183	0xbce16c74	-0.027517535
184	0xbdbce611	-0.09223569
185	0x3bd50500	0.00650084
186	0x3d8283a1	0.063727625
187	0x3dbd5ddb	0.09246417
188	0xbc92d1b0	-0.017922252
189	0x3d3be3fa	0.045871712
190	0x3d6a45ce	0.057195477
191	0x3dad00ef	0.08447444
192	0xbd7f0371	-0.06225914
193	0x3cc157bc	0.023601405
194	0x3d80cedf	0.062894575
195	0x3c698948	0.014253922
196	0xbce80078	-0.028320536
197	0xbd4413a7	-0.047870304
198	0xbcd1e408	-0.02562143
199	0x3d0f02ba	0.03491471
200	0x3d6754a6	0.05647721
201	0xbdcc67da	-0.099807456
202	0xbcafb194	-0.02144698
203	0x3c31c820	0.010850936
204	0x3d032982	0.032022007
205	0x3d1d1ae6	0.03835573
206	0xbd646c50	-0.055767357
207	0xbcfe6d3c	-0.031057946
208	0xbdde1148	-0.1084314
209	0xbad8db80	-0.0016544908
210	0xbd8cd20e	-0.06876002
211	0xbc76aad0	-0.015055373
212	0x3cab20cc	0.020889662
213	0x3cbb4824	0.022861548
214	0x3dab51a7	0.08365183
215	0x3d712456	0.058872543
216	0xbd92933a	-0.071569875
217	0x3dcdedd9	0.100551315
218	0x3d1ac09e	0.03778135
219	0xbca9c6bc	-0.020724647
220	0x3dadbf73	0.08483782
221	0xbdce535b	-0.100744925
222	0x3da648e7	0.08119374
223	0x3cb5859c	0.022158436
224	0x3ddb4b19	0.10707683
225	0x3d242226	0.04007163
226	0xbdc53ed8	-0.09631127
227	0xbc8e0d48	-0.017340317
228	0x3bc9a660	0.0061538666
229	0xbd128e76	-0.035780393
230	0xbdc8caec	-0.09804329
231	0xbcde0328	-0.027101114
232	0x3c8d3cfc	0.017240994
233	0x3d9e8d6b	0.07741817
234	0xbd5ef76f	-0.05443519
235	0xbda97c81	-0.082757
236	0xbc9fb728	-0.019496515
237	0xbd25833c	-0.040408358
238	0xbdd61aea	-0.10454352
239	0x3caed68c	0.021342538
240	0xbdd8da26	-0.105884835
241	0x3d209e4a	0.039213456
242	0x3dcddd6d	0.10051999
243	0xbd940e76	-0.07229321
244	0xbc2c25f8	-0.010507099
245	0x3d0205ee	0.031743936
246	0x3d1077b6	0.035270415
247	0x3dbed3d7	0.09317749
248	0xbd9a84f2	-0.075448886
249	0x3d7fab96	0.062419496
250	0xbbcd5e60	-0.006267354
251	0x3d7ae482	0.06125308
252	0xbdc46b59	-0.095907874
253	0x3d1f825e	0.038942687
254	0x3d9cae55	0.07650439
255	0x3cc2fb3c	0.023801439

fc3.bias f4 [10]
0	0x3d368bbe	0.044566862
1	0xbc2b0570	-0.010438308
2	0xbdceae86	-0.100918815
3	0x3cea3184	0.028588064
4	0x3c8913ac	0.016733013
5	0x3d89ece1	0.06734634
6	0x3dad4b13	0.08461585
7	0xbda0b7e8	-0.07847577
8	0xbd213c92	-0.039364405
9	0xbc94c1f8	-0.018158898
