modelNN.pth (torch_old, 249706 bytes, 10 tensors)

conv1.weight f4 [6, 3, 5, 5]
000000 e4 38 dd 3e 72 14 e2 bd 6d 4b dc bd f5 31 94 3b
       0.43207467 -0.11039056 -0.10756574 0.004522557
000010 f3 ad e3 3b cc af 7c bc af e4 0a bf 62 cd ff ba
       0.0069482266 -0.015422773 -0.54255193 -0.0019516165
000020 e2 82 85 3e ba 51 3a 3e d5 55 5c be ec bc b0 be
       0.26076418 0.18195239 -0.21517117 -0.34519136
000030 15 20 1e 3e 47 8a bb 3e 6c 14 4c 3e b5 ee a1 be
       0.15441926 0.36628935 0.19929665 -0.31627432
000040 ee 42 d4 3d 04 94 87 3e 17 3c 01 3e 2b 64 69 3d
       0.10364328 0.26480114 0.12620579 0.056980293
000050 09 2c ba 3d 72 ef 83 3e a6 2c 6b 3e 77 57 0b be
       0.0909043 0.2576862 0.22966251 -0.13607584
000060 84 f3 f4 bd de b0 72 3e 38 73 5a be b5 49 15 be
       -0.119605094 0.23700282 -0.21333015 -0.14578898
000070 41 2d ca 3c a0 b4 49 3e 42 98 04 be 9b 0b 1d bf
       0.024679782 0.19697809 -0.12948707 -0.61345834
000080 29 20 cc bd f0 71 ae 3e bd a3 ca 3e 69 67 63 be
       -0.099670716 0.34071302 0.39578047 -0.22207417
000090 ec d5 d9 be c7 c6 09 3d 63 6b 99 3e 2a 8b af 3e
       -0.42546022 0.033636834 0.29964742 0.3428586
0000a0 4b 1f d5 be 0b 53 8b be 7d a4 ec 3d 8b a8 0f 3d
       -0.41625437 -0.27211794 0.11554811 0.035072844
0000b0 b7 53 01 3d 73 fe ba bd b2 80 d4 3c fa cb 46 bd
       0.031573977 -0.091305636 0.025940273 -0.04853437
0000c0 62 bd 95 be 8e 09 4c be ef 6d 69 be c3 6c fb be
       -0.2924605 -0.1992552 -0.22795843 -0.49106416
0000d0 96 bf 74 be d2 92 61 3e 29 d8 91 3e be f4 dc be
       -0.23901209 0.22028664 0.2848523 -0.43155473
0000e0 8e 8d 37 bf f8 8e 05 be 8f 16 13 3f 6c 9d fe 3e
       -0.7170037 -0.1304282 0.57456297 0.49729478
0000f0 66 a7 da be 8c 40 1e bf 40 a1 0f 3d 18 ae 0e 3f
       -0.4270584 -0.6181724 0.03506589 0.55734396
000100 89 8e ec 3e 55 54 d7 be c9 ba 59 be 1e be 6d 3e
       0.46202496 -0.42056528 -0.21262659 0.23217055
000110 0a 46 87 3e 90 03 a8 3e 6d a1 91 3d 4f f3 7e 3e
       0.26420623 0.32815218 0.07110868 0.24897502
000120 63 a1 a4 3e ca 15 bb 3d 67 77 62 3e 21 0d 36 be
       0.32154378 0.09135015 0.22115861 -0.17778446
000130 c0 83 07 bf 55 1c a0 bf 56 f2 28 bf 65 33 68 bc
       -0.5293541 -1.2508646 -0.65994775 -0.01417241
000140 7f be a7 3c 3a 1c 65 be 8f 4c b7 be cc 0f 00 bf
       0.020476578 -0.22374049 -0.35800597 -0.50024104
000150 c5 a2 10 be 8f cc 39 be fd 4d 0d 3f d9 cb 90 3f
       -0.14124592 -0.18144439 0.55197126 1.1312209
000160 4b 8a ce 3e de 7f 9b be 07 de 70 3d 2b eb 21 3e
       0.40339884 -0.30370992 0.05880549 0.15812366
000170 eb 4a d9 3e f3 db f9 3e 99 11 08 3e 3a 8c b2 3e
       0.4243997 0.4880062 0.13287963 0.3487261
000180 78 03 87 3b 39 3d de bd 5c 43 9b 3e 93 e4 ec 3e
       0.0041202866 -0.10851521 0.3032483 0.46268138
000190 8f f7 34 3e 9b b4 05 be a9 01 1b bf 5e a8 b4 3d
       0.17672561 -0.13057177 -0.6054941 0.08821176
0001a0 cc b8 30 3f 01 ea a8 3d d6 19 24 3e bc 00 53 be
       0.6903198 0.08247758 0.1602548 -0.20605749
0001b0 08 fb 35 3c 5e f3 b6 3c d3 28 f7 be a4 f8 bb 3e
       0.011107214 0.022332843 -0.48273334 0.36713135
0001c0 62 9c 8a 3f bc b1 ac 3e de 38 96 be 70 d0 d2 be
       1.0828974 0.3372935 -0.2934026 -0.4117465
0001d0 f5 ca 7a be ef a5 56 3e bb ef 37 3e 65 af df bd
       -0.24491484 0.20961736 0.17962544 -0.10922126
0001e0 4d 63 2b 3d 7c 5c 3e be 05 e0 d7 be b6 a5 7a 3d
       0.041842747 -0.18589967 -0.421631 0.06119319
0001f0 21 be 3d 3e d3 36 ed 3e 26 da 18 be ca cc 3a bf
       0.1852956 0.4633089 -0.14926967 -0.72968733
000200 2f 53 42 be b1 a2 48 3e 5c 8b 13 3e c2 2b f0 bd
       -0.18977045 0.19593312 0.1440863 -0.11727096
000210 bd 88 bd be 22 bb e9 be ee 8e 5e bd aa 7a aa be
       -0.37018386 -0.45650584 -0.054335527 -0.3329671
000220 6b b6 c7 3e 1c 51 5d 3f fb d2 b2 3d db 1b 6e be
       0.3900636 0.8645189 0.087316476 -0.23252814
000230 a9 c1 20 be 46 18 0d 3e a8 30 56 3e 67 b0 7c 3e
       -0.15698875 0.13778791 0.20916998 0.24676667
000240 58 bf 0b 3b 8e ed 98 3e f6 f4 6f 3d 61 07 74 be
       0.0021323767 0.2986874 0.058583222 -0.2383094
000250 40 43 92 bd c0 9b 1e 3e 21 2e 01 be 74 40 8b 3e
       -0.07141733 0.15489101 -0.12615253 0.2719761
000260 64 3b 30 3e 54 ed e4 3e 36 da 7f 3e ef e5 a2 3e
       0.17210156 0.44712317 0.24985585 0.3181605
000270 ec ad 84 3f 8f dc 98 3f f3 cf 40 3f bc 59 a5 3d
       1.0365577 1.1942309 0.75317305 0.08073756
000280 49 29 8b be f2 62 b8 be 82 a8 2e bf 70 64 2f bf
       -0.27179936 -0.3601299 -0.6822587 -0.6851263
000290 0e 0a f2 bd de 54 44 bd d3 2d cb be 32 14 40 bf
       -0.11818324 -0.0479325 -0.396834 -0.75030816
0002a0 e6 a9 cf be 8c fe cf 3d dc fe 9e be ee 7b a4 bd
       -0.4055931 0.10155973 -0.31053817 -0.0803145
0002b0 d6 8b 3b be aa 09 53 be e8 07 6d be 07 e4 2c bb
       -0.18315062 -0.20609155 -0.23147547 -0.0026381032
0002c0 16 91 a0 3d c1 38 9c 3d 9b 23 6e 3e 21 2e 67 be
       0.07840173 0.076280124 0.2325577 -0.2257619
0002d0 2e c8 db 3e 7a 89 8a 3f db bf 66 3f cd c4 02 3f
       0.42926162 1.0823205 0.901365 0.51081544
0002e0 bc cd 8e be 9f f3 72 bd 08 80 d3 be 00 aa 80 bf
       -0.27891338 -0.059314366 -0.41308618 -1.005188
0002f0 2f af 70 bf d6 4e 06 bf 93 b0 8b ba 42 ce a4 be
       -0.9401731 -0.52464044 -0.0010657482 -0.32188612
000300 1d 7a 18 bf a2 83 91 be b3 00 da 3d 87 fb ee bc
       -0.5956133 -0.2842074 0.106446646 -0.029172672
000310 91 8e 27 3e d8 ab 95 3e 05 52 b6 3e d5 64 2a bd
       0.16362979 0.2923267 0.3560945 -0.041600067
000320 ec 6c 04 bf ec 06 e7 be d2 00 03 bf e7 06 b7 3b
       -0.517287 -0.45122468 -0.51173127 0.0055855396
000330 68 22 97 bd 84 f2 aa 3d cc c2 1d 3f 95 a0 2c 3f
       -0.07379609 0.083470374 0.6162536 0.6743253
000340 71 13 36 3f 3e 06 56 3e 24 0d e3 bd c8 4e a8 be
       0.71123415 0.20900819 -0.11086491 -0.32872605
000350 d5 3c ea be 2c ec ad be fb 6a 0e 3c ef f1 87 bd
       -0.45749536 -0.33969247 0.008692498 -0.06637942
000360 d3 92 38 be 3e 28 8a bd 94 e0 49 3d b4 fc c5 3e
       -0.18024759 -0.06745957 0.04928644 0.3866936
000370 fd 09 82 be ea 19 57 3e e1 c5 af 3e 61 0b f8 3e
       -0.25398245 0.21005979 0.34330657 0.4844618
000380 c2 de 76 3e f0 39 9e bb bb 7e 7a bd bb 0d 5a be
       0.24108413 -0.004828684 -0.061156016 -0.212943
000390 e4 d5 96 3d 1b 23 2d be 4b 1d 5c 3e 95 df f0 3c
       0.07365015 -0.16907923 0.2149555 0.029403487
0003a0 11 49 b2 bd c5 2a 49 be 3f 58 2e 3d b8 c9 63 bc
       -0.087053426 -0.19645222 0.042564627 -0.013903074
0003b0 08 68 17 3f 02 0d 82 bd cb b3 98 bf 1d 36 2e 3f
       0.59143114 -0.06350137 -1.1929868 0.6805132
0003c0 de 71 d6 be 2a 90 83 3f 4f 1e 04 3f 94 de e9 bf
       -0.4188375 1.027837 0.5160875 -1.827105
0003d0 7f 87 42 3f 53 9a 3e be 77 38 f4 3e bd 65 3e 3f
       0.75988 -0.18613558 0.4769933 0.7437399
0003e0 ee da ca bf eb fa 89 3e 56 a0 38 be f0 27 3c 3d
       -1.5848062 0.26949248 -0.18029913 0.045936525
0003f0 62 07 7c bd 30 b8 f4 3c dd 54 8b 3e 19 5c 4c be
       -0.06153048 0.029872984 0.27213183 -0.19957007

conv1.bias f4 [6]
000000 04 52 02 bf 53 41 00 bf 7d f6 47 bf 86 2e c4 be
       -0.50906396 -0.50099677 -0.78110486 -0.38316745
000010 53 1a a6 3e 5f 92 33 bf
       0.3244196 -0.7014522

conv2.weight f4 [16, 6, 5, 5]
000000 53 68 b4 3d 0f 56 37 bc 3b c3 64 be 18 9f 0e be
       0.08808961 -0.011189952 -0.223401 -0.13927877
000010 3c f5 2b be 0f 58 ad 3d 55 2e 1e be a0 d8 7e be
       -0.16792768 0.084640615 -0.15447362 -0.24887323
000020 0f b1 b1 be 61 58 72 be dd 85 85 be 8c 1c 9e be
       -0.34705397 -0.23666526 -0.26078692 -0.30881155
000030 b7 f0 c6 be 08 f9 bd be 55 80 38 bd a1 2e 81 be
       -0.38855526 -0.37104058 -0.045044262 -0.25230888
000040 45 4e d6 be bf b1 cf be d3 2c 80 be 93 8b 12 3e
       -0.4185659 -0.40565297 -0.25034198 0.14311056
000050 ea 42 2f be b8 db 91 bd 38 14 b1 bd 20 af b8 bd
       -0.1711537 -0.07121986 -0.086464345 -0.090177774
000060 f6 be 2b 3e bf d4 dd 3e 7e b6 01 3f 42 d9 c6 3e
       0.16772065 0.43326375 0.50669086 0.3883763
000070 6b b4 e6 3e ff f6 c3 3e 79 6b 92 3d d0 64 2e be
       0.45059523 0.3827438 0.07149405 -0.17030644
000080 51 1a 12 be 5f 84 7b 3e f6 4f 92 3e cf f6 a2 be
       -0.14267851 0.24562214 0.2857663 -0.31828925
000090 ef 83 31 be 1e 6e 61 bd d9 1d 7d bd 27 63 43 3c
       -0.17335485 -0.055036657 -0.061796043 0.011925495
0000a0 90 19 93 be bd d7 50 be 78 0c 1a be 6b 6c 7c be
       -0.2873044 -0.20394798 -0.15043819 -0.24650733
0000b0 17 f7 1e be 1f b4 26 be 3d df 10 bd 58 9a bf 3a
       -0.15523945 -0.16279648 -0.035369147 0.0014618142
0000c0 1d 78 15 bd 6f 58 21 be 8b 45 4f 3e 60 2d c9 bc
       -0.036491502 -0.15756391 0.20241372 -0.02455777
0000d0 b1 ff 5b 3d 6d 69 28 3e 68 d7 9e 3e 0c 93 9a bd
       0.053710643 0.16446467 0.31023717 -0.07547578
0000e0 2a 7b 75 bd 97 1d 90 bd 0a 80 8b bd 41 72 67 3e
       -0.05993191 -0.07036894 -0.06811531 0.22602178
0000f0 e4 f7 75 3e 95 73 ad 3b 87 2b 23 be c8 ba 8c be
       0.24020344 0.0052933195 -0.15934573 -0.27486253
000100 44 90 b2 3a 55 35 b8 bc fc c7 0a bd 1b ca d6 bb
       0.0013623317 -0.022486368 -0.033882126 -0.0065548546
000110 ee 23 1f 3d df 7c 5c 3e 64 4e 1a 3c 8b 21 9f bd
       0.038852625 0.2153201 0.009418104 -0.0777007
000120 8b 84 1c be ca 0a 19 be d1 44 d3 bc 5c 2b 99 3e
       -0.15284936 -0.14945522 -0.02578965 0.29915893
000130 31 bb 8d 3c 2b 6a 26 3d 13 bd 82 3e 9f c2 7c 3e
       0.017301174 0.040628593 0.25534877 0.24683617
000140 0b b8 e9 3d c6 ce 54 be 2f e5 03 be 30 ec 96 bd
       0.114120565 -0.20782003 -0.12880395 -0.07369268
000150 82 7d 77 3d a7 be 3e bd 2a 65 87 be bb 8f db be
       0.060422428 -0.04656854 -0.2644437 -0.42883095
000160 d0 7f 62 be b4 f9 ec 3d bb 18 44 bc d2 3b b0 be
       -0.22119069 0.115710646 -0.011968787 -0.3442064
000170 09 03 a6 be 88 3a 70 be e1 a5 2c 3d 62 bf 0b be
       -0.3242419 -0.23459828 0.042150382 -0.13647225
000180 ea c2 2e be fb 17 9a bd 09 47 66 be 6b d7 ef 3c
       -0.17066541 -0.07524105 -0.22488035 0.029277524
000190 5b 0f 91 bd 53 4d 06 bd 1e 3a ba bd b3 2f da bd
       -0.07083007 -0.032788586 -0.09093116 -0.10653629
0001a0 24 c8 19 3d 31 05 15 3e 64 e8 d6 3d dd 3c df 3d
       0.037544385 0.14552762 0.10493544 0.109002806
0001b0 87 ef b2 3d 7f 1d 7d 3e c3 7b 23 3b 43 ad 25 3e
       0.087370925 0.24718283 0.0024945594 0.16179375
0001c0 a3 88 1e 3e b8 c0 47 3e 13 19 01 3e 4c 77 df bd
       0.1548181 0.1950711 0.12607221 -0.10911426
0001d0 e5 c5 40 bd 31 8f ef bd 7e 52 6c 3d 09 36 19 3e
       -0.047063727 -0.116972335 0.05769586 0.14962019
0001e0 f8 6a 98 be 6f 15 ca bd 00 f4 fa 3b c2 39 c4 bc
       -0.2976911 -0.098673694 0.0076584816 -0.023953322
0001f0 df 73 a9 3e f7 09 39 be fb d0 e1 be 71 03 a0 be
       0.33096215 -0.18070208 -0.44104752 -0.31252626
000200 63 c8 92 be 0b 38 9f be 8e f6 29 be 09 05 ee be
       -0.28668508 -0.31097445 -0.1659796 -0.46488217
000210 cc 6f d7 be 19 0b c8 be 1b b1 8b be 66 93 ca 3e
       -0.42077482 -0.39070967 -0.27283558 0.3956558
000220 35 07 db bd 40 db b3 bd 77 b6 2b be 3e f9 43 bd
       -0.10694734 -0.08782053 -0.16768824 -0.047845118
000230 53 a1 03 3f 7d c9 5c 3e 10 18 bc 3e f8 9d 32 3e
       0.51418036 0.21561237 0.36737108 0.17443073
000240 40 d8 8c 3e 4f 04 dd 3e da b7 ea bc f3 3e 2c 3e
       0.27508736 0.4316735 -0.02865212 0.16820888
000250 c4 8d 16 3e 8d 09 83 bd 54 bd 66 be 52 81 0f be
       0.14702517 -0.06398306 -0.2253316 -0.14014176
000260 a4 26 32 bc bb b0 6e bd 17 86 1b 3e 07 79 65 be
       -0.01087347 -0.058274012 0.1518787 -0.2240945
000270 a1 c7 84 be b0 7f 0e be b5 9f df be 25 9b 5c 3e
       -0.25933555 -0.13915896 -0.43676534 0.21543558
000280 31 27 bb 3d e1 92 5b be 56 d7 4a be f4 f6 bb be
       0.091383345 -0.21442749 -0.19808707 -0.36711848
000290 dd ac d4 3e e6 2e 26 3c e3 f5 97 be 19 85 b4 bd
       0.41538134 0.010143017 -0.29679784 -0.08814449
0002a0 57 75 76 3d 1e bb b9 3e dc c4 e6 bd c0 f3 8c be
       0.060170498 0.36275572 -0.11268017 -0.27529716
0002b0 6a 5c 49 be cf 22 47 bd 9a 0a c8 3d 3b 2e 7b be
       -0.1966416 -0.04861718 0.09767647 -0.24529354
0002c0 8a 9f 89 bd 76 25 50 be be ec ce be e1 1d a9 be
       -0.06719883 -0.2032679 -0.40414995 -0.33030608
0002d0 68 d3 4b 3d b5 79 d4 3e 33 25 7b 3d fe 5d d8 be
       0.04976216 0.41499105 0.061314773 -0.4225921
0002e0 e7 2e bb bd 3d 6a 22 3f f1 4a 11 3f 92 62 dc 3e
       -0.09139805 0.63443357 0.56754977 0.43043953
0002f0 28 93 f4 be 39 0e 2d 3d ac 27 35 3e e5 f3 98 3c
       -0.4776852 0.042249892 0.17690915 0.018670985
000300 be e4 f5 bd c0 2d d5 be ca 70 5c be a3 cf 1f be
       -0.1200652 -0.41636467 -0.215274 -0.15606551
000310 91 5e a4 be 4f a3 df be 66 d2 e3 be 3e 22 bc be
       -0.32103398 -0.43679282 -0.4449646 -0.36744875
000320 9c a2 64 bd 55 9b cf 3d 22 4d 12 3c a1 b3 d7 bd
       -0.05581914 0.10137049 0.008929523 -0.10532308
000330 a9 5e 1f bc d8 e4 b4 3d bd dc ad 3e 87 15 00 3e
       -0.009727159 0.08832711 0.33957472 0.12508212
000340 f6 23 38 be ac 18 07 be 03 8e 85 3d 84 9c 82 bc
       -0.17982468 -0.13193005 0.06521227 -0.015943773
000350 2b 79 17 bb e0 ee f0 be 89 84 41 be fb 40 f1 bc
       -0.0023112993 -0.47057247 -0.18898214 -0.02944993
000360 e7 61 81 bd ae 22 65 be 05 03 e1 be 85 5c 9a be
       -0.063175015 -0.2237651 -0.43947616 -0.30148712
000370 18 55 b2 3e 3f 5f f2 3c dc 17 f2 3d 41 b7 4c be
       0.34830546 0.029586433 0.11820957 -0.19991781
000380 65 18 96 be 8b 8b a6 be c9 1d c5 be f0 c1 f2 3c
       -0.29315487 -0.32528338 -0.38499287 0.029633492
000390 f2 2c ed bd 39 e1 83 3e 2e fa de be ec ac 0b bf
       -0.11580838 0.2575777 -0.43550247 -0.5456073
0003a0 98 80 82 3c 58 d1 5b 3e 1c de 0a 3e 09 4f a4 be
       0.015930459 0.21466577 0.1356129 -0.3209155
0003b0 d5 7c 3b bf 95 9a 49 3c 98 5a d8 3e 77 ea b7 3d
       -0.73237354 0.012304922 0.42256618 0.089802675
0003c0 47 4a 84 be 18 5a 12 bf d1 65 86 bd 60 cf 9d 3e
       -0.2583792 -0.5716872 -0.06562389 0.30822277
0003d0 59 09 e0 3c 16 1c 25 be 34 38 8e be 5e a8 4a 3d
       0.027348207 -0.16123995 -0.27777255 0.049476974
0003e0 2f a3 87 3e 9d c9 b1 3d d4 a2 f8 bb 8c a1 df bd
       0.26491687 0.08681033 -0.00758777 -0.109194845
0003f0 ed db ba bd 04 2c 0f bd 7a 47 24 be 83 ec ae 3d
       -0.09123979 -0.034954086 -0.16042891 0.08541205

conv2.bias f4 [16]
000000 63 f0 81 3e b7 c2 bb 3e 62 95 dd 3f 0b 87 09 3f
       0.25378713 0.36671993 1.7311213 0.53721684
000010 f5 92 e6 be ca 62 46 3f 19 b2 ca be ce a7 43 3f
       -0.45033994 0.7749449 -0.39589003 0.76427925
000020 c3 bf 76 3f 57 07 2b bf 42 c3 42 3f 14 e3 ab bf
       0.96386355 -0.66808075 0.7607919 -1.3428674
000030 d0 08 e6 bf f6 5f 80 be b7 41 00 40 77 53 48 bf
       -1.7971439 -0.25073212 2.004011 -0.7825236

fc1.weight f4 [120, 400]
000000 a5 2a 51 3d 15 a4 0d 3d 79 9c 49 3d d5 d3 12 3d
       0.05106606 0.03458031 0.04922149 0.03584655
000010 4d 55 a3 bc 7b 67 95 3d 60 16 e0 bb d8 63 f8 bd
       -0.019938136 0.07295128 -0.006838605 -0.12128419
000020 1e 63 c1 3d 24 74 14 3e 5a 68 04 3e b3 af 10 3d
       0.09442733 0.14497429 0.12930432 0.03532381
000030 d1 34 99 bd c0 54 d1 3c c9 94 c6 3d 78 d0 56 3d
       -0.07480777 0.025553107 0.09696347 0.052444905
000040 bf 12 1e be d6 13 13 3c 03 62 80 3d 3a 2f 08 3e
       -0.15436839 0.008976897 0.06268694 0.13299266
000050 26 af 01 3e 5a c2 00 be 1f b9 fe bc a8 fd 14 bd
       0.1266447 -0.12574139 -0.031094132 -0.036374718
000060 e4 14 60 3d 5f b1 6d be d9 18 1d be e8 63 72 bd
       0.054707423 -0.23212193 -0.1534151 -0.05917731
000070 e0 44 30 be 4e 99 c2 bd f5 c6 75 bd 2a 1e 57 be
       -0.17213774 -0.09501897 -0.060004193 -0.210076
000080 f6 ca 0f be da c3 93 be 09 12 4e be 64 9a 86 bc
       -0.14042267 -0.2886036 -0.20124067 -0.016431041
000090 30 e9 41 bc 16 11 42 bd 1c 65 0d be 27 91 00 be
       -0.011835381 -0.047379576 -0.13808101 -0.12555371
0000a0 88 3d c1 3d f3 a8 3b bd 32 21 14 be 43 f6 db bb
       0.09435564 -0.04581542 -0.14465788 -0.0067127063
0000b0 39 72 cf bc c0 c3 48 3e e9 36 df 3c 0d a2 20 be
       -0.02532302 0.19605923 0.027247863 -0.15686817
0000c0 28 6a c0 bc 2c 9b 7d 3d f7 48 d6 3c 87 10 be bc
       -0.02348812 0.06191556 0.02615784 -0.02320124
0000d0 ef fa a6 bd 89 29 08 be 36 f2 fa 3c 5d 5c 8d 3d
       -0.081533305 -0.13297094 0.030633073 0.069023825
0000e0 77 18 8e bd c1 a1 22 be d9 da 0b bd 0d 12 59 3d
       -0.0693826 -0.15882017 -0.034144256 0.05299573
0000f0 17 bb 27 3c 04 f8 b8 bb c1 76 3c be 2f 5d da bd
       0.010237477 -0.0056448 -0.18404676 -0.106623046
000100 97 a3 21 3e 1d 1b 2a bd 8d b1 c2 bc bd c7 a6 3c
       0.15785061 -0.041529763 -0.023766303 0.020358915
000110 8e ed c9 b9 1d 3f 18 be 7c 31 dc 3b 77 bc e0 3c
       -0.000385147 -0.14867826 0.006719766 0.027433617
000120 2b 40 12 be 91 99 6c be 0a f2 a0 bd 28 d6 b4 bc
       -0.1428229 -0.23105456 -0.07858665 -0.022074774
000130 39 78 d5 bd 9d cd 7c be 23 a4 ac bc 71 2a 0f 3c
       -0.10423321 -0.2468781 -0.02107436 0.008738146
000140 a5 4b db bd 8d 93 18 be f9 a2 07 be cf 27 10 3b
       -0.107077874 -0.14900036 -0.13245763 0.0021996384
000150 e8 0f 65 bd ae 22 26 be d8 53 5b bd 2a 8a 4d bd
       -0.055923373 -0.16224167 -0.053546757 -0.05018059
000160 bd d9 09 be 38 80 a6 bd db 04 21 be 03 44 08 3e
       -0.13461967 -0.081299245 -0.15724508 0.13307194
000170 f5 b0 3a bd 7e 7d e8 bd 30 89 1c bd 45 b9 2b bd
       -0.045578916 -0.11352061 -0.03821677 -0.041924734
000180 32 c3 dc 3d 67 e9 65 bd 39 e5 5b bd cd 5d 00 bc
       0.10779418 -0.056130793 -0.0536854 -0.007834864
000190 a1 9f 49 bd 74 6c a4 3d c6 45 8c 3c 1d 15 89 3d
       -0.0492245 0.08028498 0.017123114 0.0669348
0001a0 f2 44 c6 3c 3e c6 98 bc 28 99 95 3d 7a fd 7c bd
       0.024202798 -0.018649217 0.07304603 -0.06176517
0001b0 7b 40 9a 3c 23 4a 0e 3d 93 39 76 3c 29 50 91 bc
       0.018829575 0.03473867 0.015028375 -0.017738419
0001c0 d0 d3 cf 3d e5 10 86 bd 4e 6b 3e bc 4b 1c b3 3d
       0.10147822 -0.06546191 -0.011622263 0.08745631
0001d0 29 3e 3b bc df 21 12 3e 36 64 04 be c6 4e 23 be
       -0.011428394 0.14270733 -0.12928852 -0.15948018
0001e0 b2 77 cd 3b 11 59 e6 3d 43 c1 22 3e cf 62 ec 3d
       0.0062703723 0.11247457 0.15894036 0.11542284
0001f0 c7 35 5c bd 82 30 cb 3c 86 4d 6c bc f5 7a 89 3d
       -0.053762224 0.024803404 -0.01442278 0.06712905
000200 f4 5d fe bc 51 97 04 3d 09 11 32 bd ac a9 05 bd
       -0.03105066 0.03237087 -0.043473277 -0.032632515
000210 4a 3a e9 bc 68 85 c5 3c a3 41 e0 bd c4 0b cb bd
       -0.028470177 0.024111465 -0.10950019 -0.099143535
000220 30 33 51 bb 60 b9 e4 bd 74 dd 5d be 6d 7a 7e bd
       -0.003192138 -0.1116817 -0.21666509 -0.062128473
000230 2c ed d1 bd 77 04 0e 3b a7 29 b7 bd d3 1b 06 be
       -0.10250315 0.0021670142 -0.089434914 -0.13096552
000240 06 57 46 3c e8 65 2f bd ee 0f cb 3c 96 5d 01 bd
       0.012105709 -0.042821795 0.02478787 -0.03158339
000250 0c 4a 20 3e 26 f4 5f 3e 0f 03 37 bc d8 ef bb bd
       0.15653247 0.21870479 -0.011170163 -0.09176606
000260 9d 42 b3 bc 13 b5 18 3d 00 af ef bd 18 38 a6 bd
       -0.02188235 0.03728206 -0.117033005 -0.08116168
000270 68 63 8d 3c 6b 71 e9 bc 6c 51 7d 3d e5 c1 21 3e
       0.017259315 -0.028496465 0.061845228 0.15796621
000280 45 10 1e 3e 6b ec 5f 3e 40 8a 10 3d d3 58 9e 3d
       0.15435894 0.2186753 0.035288095 0.077317856
000290 a1 6b af 3d f1 da 5e 3d b2 1f 52 3e bd 6a 6c 3d
       0.085654505 0.054408018 0.20519903 0.05771898
0002a0 b5 4e e6 bd bf 3c 34 be 43 93 3a bd 3d 01 c9 3c
       -0.11245481 -0.17601298 -0.045550596 0.024536723
0002b0 eb 0f 71 bc 7f 07 df bd e2 2c 8c be 6b f3 6c bd
       -0.014713268 -0.10890102 -0.27377993 -0.05784933
0002c0 c1 0e 8b bd d4 ab 9e bc 0a a5 47 be a0 05 f9 bc
       -0.067899235 -0.019369043 -0.19496551 -0.03039819
0002d0 0a c9 fc bd c5 f4 02 be 7f 29 ff 3b ce 71 76 bd
       -0.12343033 -0.12788685 0.007786929 -0.060167126
0002e0 2b 87 d1 bd 2b f0 05 be f4 28 3b be 06 bc 56 be
       -0.10230859 -0.13079898 -0.18277341 -0.20970163
0002f0 fe 99 ec bc 29 92 0d be 2c 58 06 be 24 be d8 bd
       -0.028882023 -0.13825287 -0.13119572 -0.105831414
000300 dd cd ea bc 73 ea cb 3d 34 e1 be bd 15 3a 0a be
       -0.028662616 0.09956827 -0.09320298 -0.13498719
000310 c9 01 aa 3b 1d 50 47 bd b2 e9 c8 bd d8 22 0a 3a
       0.005188201 -0.048660386 -0.09810199 0.00052694743
000320 cd 5f 06 3d 87 26 23 bc 69 d9 83 bd 51 96 fa 3d
       0.032806206 -0.009957916 -0.06437952 0.12235702
000330 ca 41 06 be 0f 28 01 bd 4a 97 a0 3c 73 bb f6 3b
       -0.13111034 -0.031532343 0.01960339 0.00752967
000340 8d 31 be 3d 82 16 82 bd bb 9c 46 3c 72 a8 9e 3c
       0.09286795 -0.06351949 0.012122328 0.01936743
000350 5a 2b cc bc 87 1a 21 3e cd 3d 50 bc ea 50 a8 3d
       -0.024923015 0.15732776 -0.012710047 0.08218558
000360 8a d6 10 3d 0f 66 5a be 09 66 b6 3d 57 55 cb 3d
       0.03536085 -0.21327995 0.089061804 0.09928387
000370 c2 99 e4 3d 29 b7 1f bd fe 65 7c be 44 83 22 bd
       0.111621395 -0.038993035 -0.24648282 -0.039675966
000380 8e d6 97 3d 87 e9 e6 3b 0b 6a 25 3d 7b 48 96 3d
       0.0741397 0.0070468816 0.040384334 0.07338043
000390 b1 37 d4 3d dd 3e 92 3c 05 2a 32 3d 8b e9 4d bd
       0.10362185 0.017852241 0.043497104 -0.050271552
0003a0 4c 49 50 bc 36 7b 7e 3d ce 0b 15 3e eb 30 9f bd
       -0.012712788 0.06212922 0.14555284 -0.07773002
0003b0 3a a7 ad 3c 62 9a 0f 3e f7 5a 52 3d 50 86 8f 3d
       0.021197904 0.14023736 0.051356282 0.0700804
0003c0 09 fd 69 bd 72 28 d9 bd e2 74 a1 bd 4f 83 13 be
       -0.05712608 -0.106034175 -0.07883622 -0.14405559
0003d0 8f 0e 1d be e8 5e 2a 3c ea 3e b2 bd bb e8 54 bc
       -0.15337585 0.010398604 -0.08703406 -0.01299494
0003e0 2a 1c a2 bd 52 9c cd 3c 23 e7 f1 bd 79 00 58 be
       -0.07915528 0.025098953 -0.11811664 -0.2109393
0003f0 ed 9c 89 3c 33 15 0b 3d 23 cd 0e 3c 99 b4 2a be
       0.01679846 0.033955764 0.008715901 -0.16670455

fc1.bias f4 [120]
000000 e0 ec 82 be 5a 95 1d 3d 50 ae 64 be 5e 4f a3 3d
       -0.25571346 0.03847251 -0.2233212 0.079741225
000010 2f 53 80 3d 03 9a e9 3e 36 81 f7 3d fc d1 9a 3d
       0.06265866 0.45625314 0.12085192 0.075595826
000020 4e 00 71 3d a3 f1 a4 3e 22 2e 3b bd 0d 54 92 3e
       0.05883818 0.32215604 -0.045698293 0.2857975
000030 7a 6a a4 3c f7 b0 b0 bc 04 26 ca bd 36 27 14 3e
       0.020070303 -0.021568758 -0.09870532 0.14468083
000040 79 e3 5f 3e d2 8c 25 be 14 63 24 be ca b6 1d be
       0.21864118 -0.16167 -0.1605342 -0.1540176
000050 c3 e0 64 3e 2c 0f ac 3e 0c 64 30 bd 94 77 b9 bd
       0.22351365 0.33605325 -0.043064162 -0.09056011
000060 e3 fb d6 3d 73 a8 0e bd b2 fb 97 3d 2a 7d 61 3e
       0.10497262 -0.034828614 0.07421054 0.22020403
000070 18 34 47 bd 12 57 de bd 35 96 cd bd 51 d2 82 be
       -0.048633665 -0.10856451 -0.10038415 -0.25551084
000080 24 d9 9d bd 59 1e d6 bc 47 87 59 3d 65 50 49 3d
       -0.07707432 -0.026137518 0.053107526 0.049148936
000090 ee be 68 bc 14 e5 64 ba f3 78 b8 3e 9b e5 56 be
       -0.014205677 -0.0008731645 0.36029777 -0.20986025
0000a0 92 40 04 3d db 37 9e bd 22 e8 4e 3e f8 47 f7 bc
       0.03228814 -0.07725497 0.20205739 -0.030185685
0000b0 2c 2c 8b 3c 10 10 8c 3d de c4 10 3c de f4 99 3c
       0.016988836 0.06839001 0.008835999 0.01879352
0000c0 39 70 19 3e 02 0a 45 bc da c4 02 be 03 0c 1a be
       0.14984216 -0.012026312 -0.12770405 -0.15043645
0000d0 fa d4 12 bd cd 51 df bd 22 85 92 bd c2 d8 89 be
       -0.03584764 -0.10904274 -0.07154299 -0.26923186
0000e0 fb 43 c5 3e 5f 0a 6d 3e e3 98 ab 3d 70 d3 9c 3e
       0.38528427 0.23148488 0.0837877 0.30630064
0000f0 bd 60 71 3d 1d fa f2 3d d1 94 5a 3e 49 09 66 3b
       0.058930147 0.118641116 0.21345831 0.003510075
000100 76 03 41 be de 75 40 3d 11 24 3b be 70 a0 a2 bd
       -0.18848976 0.046987407 -0.18275477 -0.07940757
000110 f8 78 c6 bc e5 ab 6f 3e 54 e9 3a 3e 04 2c a8 bc
       -0.024227604 0.23405416 0.1825307 -0.0205288
000120 01 b3 95 bd bd 4b 03 be ab 4a 84 be 46 60 8c 3c
       -0.07309533 -0.1282186 -0.25838217 0.01713575
000130 13 90 00 3c dc 6b 19 3d 52 ee 0a 3d 51 8a a2 bd
       0.00784685 0.03745638 0.033918686 -0.07936538
000140 2f f6 e4 bd f6 09 a1 3e 38 5a 9a 3e c5 d5 26 3d
       -0.11179768 0.31452912 0.30146956 0.04073121
000150 61 7b a8 3c 0c 18 c5 bd c6 cd 00 bd 0b 5b 80 3e
       0.020566644 -0.09623727 -0.03144624 0.2506946
000160 f9 61 88 3d ac d0 36 3d ac cc 0f 3e d3 f8 d4 3d
       0.06659312 0.0446326 0.1404292 0.10399022
000170 b7 3b e7 3e a1 cd 84 3c f2 40 4e bd cd 69 03 3c
       0.45162746 0.016211333 -0.050354905 0.00802083
000180 12 b4 0d 3e 63 82 86 3d 09 5e b9 3e 5e 25 6b 3d
       0.13838223 0.06567838 0.36204556 0.057408683
000190 a5 b4 20 3c 27 9e c8 bc b9 ff 5e 3e f4 41 60 3c
       0.009808694 -0.024489475 0.21777238 0.013687599
0001a0 47 3e 9b 3c 32 06 a1 3e 78 06 5c 3d de 04 55 3a
       0.018950595 0.3145004 0.053717107 0.00081260304
0001b0 87 0a f4 3c a3 8e 88 3d 62 16 48 3b 44 e5 27 3e
       0.029790176 0.06667831 0.003053092 0.16396052
0001c0 d5 fe cb 3e e8 ed 9d 3c 8c c4 1a be e9 35 a2 3d
       0.3984286 0.019278482 -0.15114039 0.07920439
0001d0 f1 b2 42 bd 2e 5c 82 3c 3c e4 83 be 9e 68 fd bb
       -0.047533933 0.015913095 -0.25760067 -0.0077334186

fc2.weight f4 [84, 120]
000000 df 84 a8 bd a9 dd f8 bd 23 7c b1 bc c7 06 71 bd
       -0.08228468 -0.12151653 -0.021665638 -0.058844354
000010 cf 41 05 be 37 4a 51 3d 7a 00 31 3e 21 39 00 be
       -0.13013385 0.051096167 0.17285338 -0.12521793
000020 86 44 9c 3d 20 ff 77 bd 8a 4e 7e 3d b9 e2 10 3e
       0.07630257 -0.06054604 0.06208662 0.14148988
000030 06 57 cf 3d 57 31 3c bd 4b 02 cf bd 81 88 f2 bd
       0.1012402 -0.04594549 -0.10107859 -0.11842442
000040 d3 a0 48 3c d1 b8 57 bc 17 f8 08 3d 5b 3d 3f bd
       0.012245375 -0.013166622 0.033439722 -0.046689373
000050 7f 2c 02 3e cd 54 12 3e bb 62 6f bd ae 21 48 bc
       0.12712286 0.14290161 -0.058443766 -0.012215061
000060 78 75 d7 bd e5 f5 00 3e 77 ca 99 3d 2f 4d 46 3e
       -0.10520452 0.12593801 0.0750932 0.1936538
000070 9e 9b ba bd 22 1f d0 3c 53 ed 8f 3c 98 fa a4 bc
       -0.09111713 0.02540547 0.01756922 -0.020139024
000080 9a d3 1f be 94 68 2f 3c 6c 0d 5d bd 0c d3 22 3e
       -0.15608063 0.010706086 -0.05396788 0.1590082
000090 44 76 dd bd 65 93 ca 3d f6 5a b8 3d e0 8f c8 bd
       -0.10813573 0.098913945 0.090017244 -0.09793067
0000a0 95 a4 0e bd c3 77 9a 3c 01 e2 5d be ac 76 2b be
       -0.034824926 0.018855935 -0.21668245 -0.16744488
0000b0 04 c5 02 bd 39 8d 12 3e 90 91 9c 3d 9d 46 5f bd
       -0.03192617 0.14311685 0.07644951 -0.0545107
0000c0 43 ae 87 3d 44 d0 ab 3d 83 34 13 3c ff 65 0d 3e
       0.06625035 0.08389333 0.008984688 0.1380844
0000d0 99 e3 b6 bd e2 f4 ca 3d 4b 4a 9d 3d 40 80 a7 bc
       -0.089301296 0.09909989 0.07680186 -0.020446897
0000e0 df ad 80 3d 48 3c f0 3d 69 34 16 3e 5d ab 4a be
       0.06283163 0.11730248 0.1466843 -0.19791932
0000f0 ac 91 85 be 23 01 cc ba 57 aa 47 3e 03 56 07 3c
       -0.260877 -0.0015564304 0.19498573 0.008260253
000100 d1 41 83 3d 77 ed 0d be a4 0a 29 be 0b 75 95 bd
       0.06409038 -0.13860117 -0.16507965 -0.07297715
000110 60 78 3f 3d 91 a5 de bd ce 9a bf bc 9c cd 9f bc
       0.046745658 -0.10871423 -0.023389246 -0.019507222
000120 ee 73 39 3d 72 94 20 be 3b 71 97 bd 5d aa 80 be
       0.045276575 -0.15681627 -0.07394644 -0.25129977
000130 67 17 32 3d 88 1e 73 3d f6 14 31 be 3f b6 0c bd
       0.04347935 0.05935529 -0.17293152 -0.03435349
000140 2f 02 24 be 2a 52 8a bd d5 00 19 3e 88 d6 2a 3d
       -0.16016458 -0.06753953 0.14941724 0.0417085
000150 c6 d6 83 bd a2 52 18 be 86 07 5d 3d 4a cb ed 3d
       -0.06437449 -0.14875272 0.053962253 0.1161104
000160 35 be 2a be c1 ef ac 3c ee a1 98 bd 73 c1 8b 3d
       -0.1667412 0.021110417 -0.07452761 0.06824007
000170 71 65 cc 3d 1e 41 65 bd 6e 96 90 be 02 b0 0f 3e
       0.09980286 -0.055970304 -0.2823977 0.14031985
000180 79 2f 6e be ac 97 22 bd cc 7b dc 3c 1c 7a 2a 3e
       -0.23260297 -0.039695427 0.0269145 0.16648144
000190 97 c5 92 bd 6f 81 25 3e 74 93 a3 3d e5 75 d6 3c
       -0.071665935 0.16162656 0.07987109 0.026179263
0001a0 11 1c e7 bd 14 64 16 be 9d 6d 82 3c 5a 4d 4c be
       -0.1128465 -0.14686614 0.015921408 -0.19951382
0001b0 5a 03 66 3c 7c e8 bc 3d bb a8 0c 3e c9 bd e6 bc
       0.014038885 0.092240304 0.1373624 -0.028166668
0001c0 05 26 c9 bd a6 44 ae 3d 55 e0 ed bc bd b8 15 3d
       -0.09821705 0.085091874 -0.029037634 0.036553133
0001d0 70 9b 2a be 8f d6 a1 bd 7f 8a d7 bd e7 46 87 bd
       -0.16660857 -0.07902252 -0.10524463 -0.066053204
0001e0 1b 32 d1 bd 7c c2 52 bd 24 ee 47 bd 91 e6 d3 bd
       -0.10214635 -0.051455006 -0.048811093 -0.103467114
0001f0 51 67 97 3d 7a 77 0c be 46 8f fc bd 78 ca 01 be
       0.07392753 -0.13717452 -0.12332015 -0.12674892
000200 af 95 7b 3e 57 99 31 bc b5 c2 0e 3e 63 6a dd 3c
       0.24568819 -0.010839782 0.13941462 0.027028268
000210 f5 4f 82 ba cf 14 5d 3c 36 0d 56 bb 64 f8 77 be
       -0.0009942042 0.013493731 -0.0032661683 -0.24215847
000220 1d 5e e9 bb ad 31 2d be 99 2a 3c 3e db 62 03 3e
       -0.007121815 -0.16913481 0.18375625 0.12830679
000230 41 f3 8f bd 0b 06 b8 bd 67 d2 94 bd 6d cf b7 3e
       -0.07028819 -0.089855276 -0.072666936 0.3590044
000240 6e 43 e2 3a 20 81 01 3e cd a9 3a be 91 57 cb 3d
       0.0017262527 0.12646914 -0.18228836 0.09928811
000250 77 bc d9 bc 32 7d 09 3e a7 fc 4a be 64 21 e3 bd
       -0.026579125 0.13426664 -0.19822942 -0.11090353
000260 6e 30 99 bd 3e 7f 04 be 4f 92 6a bb 7c ce e5 bc
       -0.0747994 -0.12939164 -0.0035792773 -0.028052561
000270 ac 2a a3 bd 0f 23 72 bd 48 42 6f bc e6 bb 65 be
       -0.079671234 -0.059115466 -0.014603205 -0.22434959
000280 a4 1e 67 bd 19 2c bc bd 76 4f df bd b3 37 a3 3d
       -0.056425706 -0.091880985 -0.10903828 0.07969608
000290 c4 d0 16 3d 9b 89 c8 bd 26 b1 93 3d e4 6b ea 3c
       0.03682019 -0.09791871 0.07211523 0.0286159
0002a0 c4 54 ee 3c 12 2a 7d 3d 75 83 03 bd a5 a8 5a bc
       0.029093154 0.0618077 -0.03210779 -0.013345872
0002b0 c4 11 b2 3d 8f d3 da 3e 37 43 7e bd 47 d8 e9 3d
       0.08694795 0.4273953 -0.06207582 0.11418205
0002c0 77 ff be bd 45 f7 da bd 49 19 41 bd 7b a9 98 bb
       -0.0932607 -0.10691694 -0.047143254 -0.0046588755
0002d0 da 38 c3 bc eb f3 a0 bc a2 28 a7 3d 36 15 ee bc
       -0.02383082 -0.01964756 0.08162047 -0.029062849
0002e0 65 ad 46 be 52 dd 9b 3d c7 10 6d 3e 05 54 8b bd
       -0.19402082 0.07610573 0.23150931 -0.06803135
0002f0 b8 d4 f0 bc a8 22 ac 3d 84 8a 89 3d 4d b1 b3 bd
       -0.029398307 0.08405048 0.06715873 -0.08774052
000300 e1 e8 0e bd 67 2f 16 3e a0 e0 1c 3c 78 f4 98 bd
       -0.03489006 0.1466652 0.009575039 -0.07468504
000310 20 68 29 3e 3f 33 35 3e 1d 37 e6 bc 5f 25 20 be
       0.16543627 0.1769533 -0.028102452 -0.15639256
000320 b7 78 a0 3c 9b 8e be bd 66 28 93 bd c4 cf a1 3a
       0.019588811 -0.093045436 -0.0718544 0.0012345244
000330 ca 41 2e bb af 54 ed bd ae a4 77 be b1 5b 2e be
       -0.0026589506 -0.11588418 -0.24183914 -0.17027165
000340 ea e8 b1 bd da 5d e4 3d d6 2f 29 be 9a 8b 43 3b
       -0.08687003 0.11150713 -0.16522154 0.0029837848
000350 d0 e7 55 be 22 64 09 be 5e 00 f0 3c ca 21 8a be
       -0.2088921 -0.13417104 0.02929705 -0.26978904
000360 15 b8 3f be 56 6c 90 be 4d 2f 7d be 06 d0 31 be
       -0.18722565 -0.28207654 -0.24725075 -0.17364511
000370 71 52 f3 bd 96 ed 2d be b0 75 51 bc 8d 69 9e bd
       -0.11880959 -0.16985163 -0.012784407 -0.07734976
000380 74 27 07 be 25 31 56 bd 5a 6c 8f 3e e3 11 fe bd
       -0.13198644 -0.05229296 0.28012353 -0.12405755
000390 8c 6f f7 bc 2f 45 dd bd 4c cf 1d 3e d9 8c bd bd
       -0.030204557 -0.10804211 0.15411109 -0.0925538
0003a0 b1 61 97 bd b3 8a 1b 3c 94 70 3e be 6e f0 e0 bd
       -0.0739168 0.009493518 -0.18597633 -0.10983358
0003b0 ae f2 96 bd af af 82 3e a6 c6 da bc 1a 9e 2b be
       -0.07370506 0.2552466 -0.026706051 -0.1675953
0003c0 4b 01 c5 bd 29 10 99 3b c5 2e d8 bd 64 c0 e8 bd
       -0.09619387 0.004671116 -0.105557956 -0.113648206
0003d0 88 85 29 be 4f e6 2a be b6 32 2a be 95 cb a9 38
       -0.16554844 -0.16689418 -0.16620907 8.096468e-05
0003e0 3e 15 42 3e e1 27 a0 be ac 5b 3d 3e 5b 6d 6c be
       0.18953416 -0.31280425 0.18492001 -0.23088591
0003f0 f9 a1 9a bd f7 a4 1d be f4 b9 49 3e 36 fd 0f be
       -0.07550425 -0.1539496 0.19699842 -0.14061436

fc2.bias f4 [84]
000000 dd d4 f5 3e 39 9f 0f be 32 8a 44 3d 10 51 34 3f
       0.48013964 -0.14025582 0.047983356 0.7043619
000010 57 18 12 3c 61 47 1a 3e fd cc 26 3e 24 97 fe 3e
       0.008916936 0.15066291 0.16289134 0.49724686
000020 8c a2 d7 bd 3c 0e d8 bd 84 c6 e3 3e a9 f7 bb bd
       -0.1052905 -0.1054959 0.44487393 -0.09178097
000030 34 42 ca 3d 03 62 22 3e 64 8c 67 3f f1 7b 0d bb
       0.098759085 0.15857701 0.90448594 -0.0021588767
000040 13 5c 38 3d 0e 42 d1 3e 92 2d 9c 3e ce 2a 74 3d
       0.045009684 0.40870708 0.30503517 0.059611134
000050 29 ce fe bd 80 cc c9 3c 5a a7 e4 3e 90 45 59 3e
       -0.12441666 0.024633646 0.4465893 0.21217942
000060 0e 3b 27 3f 54 95 79 bd 00 b5 f8 bd 32 cf a2 bc
       0.65324485 -0.060933426 -0.12143898 -0.019874189
000070 ca 10 a2 bd 13 ef 0e 3e b3 4d 13 3c 3b ff 74 bc
       -0.079133585 0.13958387 0.008990693 -0.01495343
000080 1f 84 f3 3e 44 84 c5 3b a6 2f 42 3c f3 57 af 3e
       0.47561738 0.00602773 0.011852181 0.34246787
000090 d6 04 0e 3e 42 ae 8b 3d 67 b5 24 3e 86 ed e8 bd
       0.13869032 0.068203464 0.16084825 -0.11373429
0000a0 35 71 5b 3e 5e 38 51 3d 1b 23 0a 3f fe 9f c0 3d
       0.21429904 0.051079147 0.53959817 0.09405516
0000b0 98 d1 33 bd c0 59 70 3e d8 9b 0c 3e d2 ac a7 3e
       -0.043901056 0.23471737 0.13731325 0.3274904
0000c0 d4 f8 2e 3e 67 53 40 3d 2a 4a 86 3e 04 ef c3 3d
       0.17087108 0.04695454 0.26228458 0.09567073
0000d0 c8 a7 dd 3e bb 8f 0d 3e 74 97 e0 bd 01 33 6c 3e
       0.4329207 0.1382436 -0.109663874 0.23066331
0000e0 0b 00 5a 3e 68 e2 d3 3c d2 95 54 3e 1c 36 fd bc
       0.21289079 0.025864795 0.20760277 -0.03090959
0000f0 e9 d7 bd 3d 57 e1 79 bd 59 d4 96 bc 49 af 1e 3f
       0.09269697 -0.061005916 -0.018411802 0.61986214
000100 8f 80 33 3f 3b de 0b 3f f9 de 15 3e 5d b0 bc 3e
       0.7011804 0.5463597 0.14635839 0.36853305
000110 4c 6d 22 3f 4e 87 46 be f2 58 ed 3d 9a 3a e9 bc
       0.63448024 -0.19387552 0.115892306 -0.028470326
000120 97 28 c2 bd f8 7a bd bc ef 08 0f 3f bc 09 2e 3d
       -0.09480398 -0.023129925 0.55873007 0.042489752
000130 66 eb d5 bd 94 e7 15 3e 55 6e fe bc 22 be 2b 3f
       -0.10445289 0.14639121 -0.03105847 0.67086995
000140 32 2a 29 3d ab fd 6b bd c5 3e cd 3e 97 ee 03 3f
       0.041300006 -0.057614964 0.40086952 0.51535934

fc3.weight f4 [10, 84]
000000 70 51 16 be d8 cb 32 3d 3a 11 4f 3e 66 4d 94 be
       -0.14679503 0.04365143 0.20221415 -0.289653
000010 6a 54 09 be db f3 1d 3e 46 02 2a 3e e1 2a 25 be
       -0.13411108 0.15425055 0.1660243 -0.16129638
000020 fe ef 01 3d 14 8b 8f bb 46 63 36 3e ff e0 76 3d
       0.031723015 -0.004380593 0.17811307 0.060273167
000030 ef 2c ea bc d5 a3 ed 3c 30 fb 20 3d f4 86 bf 3c
       -0.02858588 0.029008785 0.03930205 0.02337978
000040 99 4a cb 3d f3 58 5b 3d df 22 ff bd c2 48 f3 3d
       0.09926338 0.053551625 -0.12457823 0.11879112
000050 6d 6b 33 3d 58 7d 05 3e 4f b4 c4 3d 66 24 13 3d
       0.04380362 0.13036096 0.09604704 0.035923384
000060 8f 98 12 be e9 96 e7 3d 27 8e 6f be 6b cd b0 bd
       -0.14316009 0.11308081 -0.2339407 -0.0863293
000070 aa 8e f9 3d 17 e1 9b 3e 69 31 7e 3e cd 4a 18 bc
       0.12185414 0.30445167 0.24823536 -0.009295178
000080 93 27 85 3e 7d 8f 16 3e a3 7e 26 3e 8b a1 7a be
       0.26006755 0.14703174 0.16259246 -0.24475686
000090 51 26 41 3e 49 e6 8e bd f9 5f 10 3e 1b b8 dc 3d
       0.18862273 -0.06977517 0.1409911 0.10777303
0000a0 11 a2 0b be e8 64 0f be 7f cf 9c be 06 0f 42 3e
       -0.13636042 -0.14003336 -0.30627057 0.18951043
0000b0 36 60 69 3e 5e ba 0e bd 4e bd 86 3d cf 5a 0d bd
       0.22790608 -0.034845702 0.06579076 -0.03451043
0000c0 76 7a fa 3c 49 98 c7 bd e7 b1 53 3e 73 b3 00 3e
       0.030575972 -0.09745843 0.20673333 0.12568454
0000d0 4c 6c 4b 3e 77 8b b8 3d 5b a6 bb bd 59 ce dc 3d
       0.1986553 0.09010976 -0.09162589 0.10781545
0000e0 e2 e9 0f 3d 12 23 2e 3e c0 ff df bd 01 a6 cf 3d
       0.035135157 0.17005566 -0.10937452 0.101390846
0000f0 57 72 b5 3d c2 02 73 bc e5 d2 60 be d8 a4 9e be
       0.08859699 -0.0148322005 -0.2195545 -0.3098514
000100 5f c3 8d bd af 98 9e be 05 3f 98 3d 74 3f 62 3c
       -0.0692203 -0.30975863 0.07433895 0.013809074
000110 fb 2a e0 bc 53 80 94 3e b3 72 58 3e f1 0e 49 3e
       -0.027364245 0.29004154 0.21137504 0.19634606
000120 89 22 e8 3d d6 48 d1 bd e6 86 5d be 68 da f5 3d
       0.11334712 -0.102189705 -0.21633491 0.12004548
000130 d3 46 72 bd 82 72 fd 3d 2a 0f 58 3e 10 0a 0d be
       -0.059149574 0.12375356 0.21099535 -0.1377337
000140 80 dd 0c 3e ab 8d 70 3e aa 17 eb 3d 8e 4f 1e 3e
       0.1375637 0.23491542 0.11479123 0.15460035
000150 f5 38 2e be dc 2c 81 bd 98 8f b6 bc be e1 7c be
       -0.17013915 -0.06307384 -0.022285268 -0.24695489
000160 e7 ae 75 3d 56 73 d1 bd 64 82 ae 3e 8f 54 7f be
       0.059981253 -0.10227077 0.34083855 -0.249346
000170 66 33 0a 3d 69 47 10 3d ec 74 7c be 5d a3 51 bd
       0.033740424 0.035224352 -0.24653977 -0.051181186
000180 99 dc 8b 3d 0a 2f a7 3d 92 c8 ad be d7 82 ac bd
       0.06829185 0.08163269 -0.33942086 -0.08423393
000190 f7 ff 43 bd 5d e9 2e be ca 57 5d be 94 b6 1b be
       -0.04785153 -0.17081209 -0.2161552 -0.15206367
0001a0 45 2b 8a 3d 18 1b 6f 3e ea 13 e6 be 9f 54 9d 3e
       0.06746534 0.23350179 -0.44937068 0.30728623
0001b0 c6 8f c0 3b 23 6c b6 3d af 23 17 3d ea 79 b3 bd
       0.005876514 0.08907344 0.036899265 -0.08763488
0001c0 8a 83 a0 3d c5 0b f7 bc 68 c5 60 3b 59 74 99 3e
       0.07837589 -0.03015698 0.003429735 0.2997158
0001d0 e6 01 9b 3c 09 3c 6f 3e cc 12 f9 bd ff e2 4f 3b
       0.018921804 0.23362745 -0.12161788 0.0031720994
0001e0 2b 59 28 be fb 69 4c 3c 8f a8 17 be 33 5b 97 bd
       -0.16440265 0.01247644 -0.14810394 -0.07390442
0001f0 dc 5a bf 3d 61 44 6f 3e 5c 14 b1 3d c3 4e 25 3e
       0.09343502 0.23365928 0.08646461 0.16143326
000200 a3 96 44 3c 06 1a 7d bd 4c 5a 8a be cc 65 23 be
       0.011998805 -0.061792396 -0.27022016 -0.15956801
000210 da f7 3e be a9 72 f3 3d 67 88 8f be 85 d9 5d bd
       -0.18649235 0.11887104 -0.28033754 -0.05416252
000220 3c 90 ee 3d 5d de 88 be 83 bc 42 3d 03 cf 5c bd
       0.11648604 -0.2673215 0.04754306 -0.05390836
000230 b7 25 b4 3d d8 84 00 bd f3 45 5a be 92 ac 2b 3e
       0.08796256 -0.03137669 -0.21315746 0.16765049
000240 8c d9 79 be 31 70 66 3c 91 af 12 be 97 a7 8c be
       -0.24399394 0.014064834 -0.14324786 -0.2747161
000250 a8 30 ac be 1f 74 c2 bc b5 af 45 3e e5 96 2f 3e
       -0.33630872 -0.023737011 0.19305308 0.17147405
000260 89 74 94 bd e3 02 f3 bd eb 24 bb 3e f0 9f 1a be
       -0.0724879 -0.11865785 0.36551604 -0.15100074
000270 1d ea 01 bd 8f 74 03 3e 49 a9 c7 3d 02 61 83 3e
       -0.03171741 0.12837432 0.097490855 0.2565995
000280 a5 61 ba 3c f3 60 a2 bd 65 8c 01 3d 42 7d 0e 3c
       0.022751639 -0.07928648 0.03162803 0.008696856
000290 7e 21 98 3e 82 c6 e9 3d 1f 0f a4 3e f7 67 bf bc
       0.29713053 0.114148155 0.32042786 -0.023365004
0002a0 c1 35 95 bc a1 f2 05 be 95 dd 23 3d 6b fe 59 3d
       -0.018214108 -0.13080837 0.04000624 0.053221148
0002b0 be e0 ba bd fe 64 2c 3b d4 d4 04 be c9 92 16 3e
       -0.091248974 0.0026305313 -0.12971812 0.14704432
0002c0 d8 16 75 3c 5f 46 3e 3e 23 bc 83 3d 79 60 3c 3e
       0.01495906 0.18581532 0.064323686 0.18396176
0002d0 62 e0 66 3d de b1 69 3e e3 9d 11 3e 18 84 01 be
       0.056366332 0.22821757 0.14220385 -0.12648046
0002e0 89 5f 15 3d 6d 12 8c 3d e4 31 70 3e 6e 9a 22 be
       0.036468063 0.06839452 0.23456532 -0.15879223
0002f0 ef 65 55 3e b7 f6 50 bb 12 37 9a 3e fc ff 8d bd
       0.20839666 -0.0031885335 0.3012014 -0.06933591
000300 10 ba 88 bd 86 58 80 3d ad d7 be bc 88 b0 c6 3d
       -0.066761136 0.062668845 -0.023296202 0.097016394
000310 77 5f c6 3d 55 e8 42 3e a7 55 e0 3d db 00 08 be
       0.09686177 0.1903394 0.10953837 -0.13281576
000320 8d 3e b8 b9 fe 32 92 3d 14 b1 40 3e d2 82 70 3e
       -0.0003514182 0.07138632 0.1881755 0.23487404
000330 53 bc 4f 3e 9f 4d c9 bd ff 66 08 be d6 e0 9d 3d
       0.20286684 -0.09829258 -0.1332054 0.077089
000340 e6 b1 94 3e 37 bc 90 3d b4 f8 f9 bc 79 2e 15 bd
       0.29041976 0.07067149 -0.030514099 -0.036421273
000350 d6 1e 14 bd 0b 63 db bd e1 9e 2b 3e c3 e5 3c 3d
       -0.03616222 -0.1071225 0.16759826 0.046117555
000360 da b4 61 3e bf a9 30 3e 63 b5 e0 3d 8d 63 60 bc
       0.22041646 0.17252253 0.10972097 -0.01369561
000370 ee 0c 4d be 06 b9 af bd 0e 21 53 3d 57 f9 f4 bd
       -0.20024464 -0.08580212 0.051545195 -0.1196162
000380 bc 67 e4 3d 10 2c b0 3d ef 62 f9 3d 6a 48 66 be
       0.11152598 0.08602154 0.12177073 -0.22488561
000390 e0 45 71 3e 01 07 c2 bd be 2c 2a 3d f0 d4 8e 3e
       0.23561811 -0.09473992 0.041546576 0.27896833
0003a0 f3 d2 89 bd d4 96 ce 3c ae 64 0c be 08 21 1d be
       -0.067296885 0.025218405 -0.13710281 -0.15344632
0003b0 f0 4c 85 3d 6c 38 17 3e d6 cc 7f bd 10 72 b0 3d
       0.06508815 0.14767617 -0.062451206 0.08615506
0003c0 4f 26 46 bd b1 a7 4a be 2e ad 79 3c 27 26 ad 3c
       -0.048376378 -0.19790532 0.015239043 0.021136357
0003d0 3b 49 73 bc de ae ff 3d ca e6 2d be 0c ff da 3c
       -0.0148490025 0.12484525 -0.1698257 0.026732944
0003e0 16 a4 94 be 08 93 97 3e cb 9e 37 be 8a 24 b3 bd
       -0.29031438 0.29604363 -0.17931668 -0.08747204
0003f0 04 ff 10 3e 90 3a eb 3b 23 3a b3 bd 36 0e 0e 3e
       0.1415978 0.007178612 -0.08751323 0.13872609

fc3.bias f4 [10]
000000 20 40 13 bf c9 eb 11 bf 16 3f 82 be 4a fe 36 3f
       -0.5751972 -0.57000405 -0.25438756 0.71481764
000010 48 cc 25 3f 00 36 64 3e dc 29 d4 3e 97 31 08 bf
       0.64764833 0.22286224 0.41438186 -0.5320067
000020 f4 51 5f 3e 10 68 ad be
       0.21808606 -0.33868456
