modelNN.pth (torch_old, 309428 bytes, 10 tensors)

conv1.weight f4 [10, 3, 5, 5]
000000 15 87 84 bf 30 7a 2d bf 52 76 9d bf a5 b9 a4 bf
       -1.0353724 -0.6776457 -1.2301733 -1.2869154
000010 e6 f9 48 bf 88 3e 79 bf ac 9f db bf 1b 06 df bf
       -0.78506315 -0.9736104 -1.7158103 -1.7423738
000020 d5 3e 52 bf 38 7f bd bc 44 9b 2d bd d8 18 35 3e
       -0.82127124 -0.023131952 -0.0423844 0.17685258
000030 28 7b 23 3f 61 3c 23 3f ec 76 7e 3f 8b 58 ff 3e
       0.63859797 0.63764006 0.9940021 0.4987224
000040 80 8d 05 3f c0 d0 ce 3e de b3 38 3f 56 66 9d 3f
       0.52169037 0.4039364 0.72149456 1.2296855
000050 7e f7 18 3f 75 bb 57 3f 02 de 9e 3f c2 18 c4 3f
       0.59752643 0.8427041 1.2411501 1.5320055
000060 84 a5 a8 3f 61 6a 34 3f bb 98 88 3f 74 79 57 3f
       1.3175511 0.7047482 1.067161 0.841697
000070 bb c6 0e 3f 6f 58 c0 3e 71 8d a1 bd 93 e0 f6 be
       0.5577199 0.3756747 -0.07888306 -0.48218212
000080 0f 89 e0 be d6 23 11 be 0b bc 95 bd 8b e4 b7 3c
       -0.43854567 -0.14173827 -0.07311257 0.022447845
000090 66 1d 1a 3f dd 2a 4b 3f 28 71 1e 3e ff 61 af bd
       0.6020111 0.7936228 0.15472853 -0.08563613
0000a0 ab cf 45 bd 36 4d 42 be 75 96 30 bf b2 3a 61 bf
       -0.04829375 -0.18974766 -0.6897958 -0.87980187
0000b0 79 79 10 bf 4c 22 52 be 56 62 2f bf 29 33 43 bf
       -0.5643535 -0.20520896 -0.68509424 -0.7624994
0000c0 b8 3f c3 be 8e c5 92 be 19 d5 bc 3e cc 5c 81 3f
       -0.3813455 -0.28666347 0.3688133 1.0106444
0000d0 9c b8 3b 3f 29 36 08 3f ba 3d 24 bd 16 8f 5c be
       0.73328567 0.5320764 -0.04009793 -0.21538958
0000e0 6a cb bf be 9e 7b 03 3c a7 e1 c3 3d a8 38 96 bd
       -0.3745988 0.008025078 0.09564524 -0.07335025
0000f0 36 be 4d 3d d3 6a 71 3f df de 97 3f 7d e7 e5 3e
       0.050230227 0.94303626 1.186489 0.44903174
000100 87 b9 e4 3b 51 15 05 3e f6 18 ee 3d 82 b2 dd be
       0.0069801244 0.12996413 0.11625855 -0.43300253
000110 b1 2c 6a bf 67 7e de be 87 88 1e be bd ca d5 be
       -0.91474444 -0.43455812 -0.15481769 -0.4175624
000120 2a 96 45 bf 06 e6 66 bf 0d d8 ff be c6 49 4d bf
       -0.7718226 -0.9019474 -0.4996952 -0.80190694
000130 f8 a5 7f bd 79 34 be 3f cd 0e 70 be 22 f5 47 be
       -0.06241414 1.4859763 -0.23443146 -0.19527104
000140 76 5d 25 be 26 12 02 c0 6a 5a 6c 3e 10 00 01 40
       -0.16148934 -2.0323577 0.23081365 2.0156288
000150 9f 5c f1 be 8d 9f a5 3f 81 bd 28 bf c5 7a 1d c0
       -0.47140977 1.2939316 -0.6591416 -2.4606183
000160 1d fc 6e 3e 71 a1 5a 3f eb 2d c0 3e 4c 14 ad 3f
       0.23338361 0.8540259 0.37535033 1.3521819
000170 9e 7d db be f0 aa af bf 09 f5 17 be 8e 89 17 3e
       -0.42869276 -1.3724041 -0.14839567 0.14798567
000180 6e 87 0a 3f 16 22 32 3f 12 ad 93 3e 9a e3 4b 3d
       0.541129 0.6958326 0.2884298 0.049777605
000190 d7 4e 38 bf ae 59 b4 bd 8f 09 91 3f 93 1b c8 be
       -0.719953 -0.088061675 1.1331042 -0.39083537
0001a0 aa f1 4e 3d 88 87 74 3e a8 9d bb bf ac 57 57 3e
       0.050523438 0.23879826 -1.4657488 0.21029538
0001b0 fa fb e5 3f 6c 1e 9a be a0 2f 85 3f 23 a7 66 be
       1.7967522 -0.30101335 1.0405159 -0.22524695
0001c0 ea 8c 09 c0 97 f4 73 3e 55 48 9e 3f b5 4c 22 be
       -2.1492257 0.23823772 1.2365824 -0.15849574
0001d0 58 0b b6 3f 31 d0 40 be 5a 60 c2 bf ba 6c d2 bd
       1.4222212 -0.18829419 -1.5185654 -0.10274644
0001e0 46 e7 07 bf 55 b6 29 3e ca 3d 4d 3f e2 e0 45 3d
       -0.5308727 0.1657346 0.8017241 0.048310168
0001f0 4e 63 3c bf f3 a6 3f bf 97 f3 8d 3d 70 34 94 3f
       -0.73589027 -0.7486412 0.06931227 1.1578503
000200 f0 29 b1 be 37 fc bf be 14 a8 3a be 35 c4 c7 bf
       -0.34602308 -0.37497112 -0.18228179 -1.5606753
000210 a0 38 dc 3d 9e 81 ff 3f bb ac f1 be 0d 0e 49 3f
       0.10752988 1.9961431 -0.47202095 0.78537065
000220 85 4e 41 bf b4 d9 2a c0 a2 f7 99 3d 59 f9 84 3f
       -0.75510436 -2.6695375 0.07517935 1.0388595
000230 fc ca 04 3d 9f a5 a6 3f f1 1a e6 be e8 fa b0 bf
       0.032420143 1.3019294 -0.4494243 -1.382657
000240 26 eb fd 3d 65 80 fa 3d 79 80 f1 3e 1d e9 4a 3f
       0.12398367 0.122315206 0.4716833 0.7926195
000250 cb ce 7a 3e a9 f9 c9 bd 21 f8 be 3e 83 0d 75 3e
       0.24492948 -0.09862072 0.37298682 0.23930936
000260 df 61 6b 3f 8e d9 96 3e b2 54 32 be 1e 33 b6 be
       0.91946214 0.29462856 -0.17415121 -0.35585874
000270 7b 1d 06 3f c4 37 95 3f 4f 31 8f bf 4e a5 db be
       0.52388734 1.1657643 -1.1186923 -0.42899555
000280 92 99 59 3e 7a 62 de 3f 58 75 13 bf 92 fa 05 c0
       0.21249989 1.7373803 -0.5760093 -2.0934186
000290 90 bb 06 3f 55 30 5d 3f 4d 2b ac be ca 9b 20 c0
       0.5262995 0.86401874 -0.33626786 -2.5095086
0002a0 38 0d d1 bc ed 4e 45 3f 9f 76 15 be 4d 0a 81 bf
       -0.025518999 0.77073556 -0.14596032 -1.0081269
0002b0 70 b2 0f ba 12 d8 5e 3f da 32 76 be 00 04 b1 3c
       -0.00054816063 0.8704845 -0.24042836 0.021608353
0002c0 91 a6 08 bf 61 b3 f1 bd e3 05 91 be c6 0e d8 be
       -0.5337916 -0.11801792 -0.28324804 -0.4219877
0002d0 0d 22 b9 be 65 f4 d8 3e 3f 14 4f 3f 05 e9 2a bf
       -0.3615879 0.42373958 0.8089027 -0.6676181
0002e0 f1 ef 28 3d 46 3b 88 3e 12 dd a5 3f ef a4 49 bf
       0.04124445 0.26607722 1.295809 -0.78767294
0002f0 68 5c d1 bf 79 02 9c 3f b2 bc d6 3e 98 1f 81 bf
       -1.6356325 1.2188255 0.41940838 -1.0087767
000300 88 96 16 c0 eb 85 06 3f 96 73 aa 3f f9 35 15 bf
       -2.3529377 0.5254809 1.3316524 -0.5828548
000310 0e a8 8d bf 16 2a f3 3e a6 1f d2 3f 5c 55 13 3f
       -1.1066911 0.47493047 1.6415908 0.57552123
000320 e9 a0 6f 3e 99 0f 6e be 55 2b 56 bd be b5 41 3e
       0.23401226 -0.23248138 -0.05228742 0.18916985
000330 9d 9c 08 be 0b 18 18 bf d8 32 94 bc 9f cf 5a 3f
       -0.13340993 -0.59411687 -0.01809065 0.85473055
000340 ec fa bb be f3 ab 8b bc 68 8f 41 3e e4 93 bc 3f
       -0.36714876 -0.017049765 0.18902361 1.4732633
000350 2f d4 2d bf f6 71 bd bf aa 98 38 3f dc bc 6a 3f
       -0.6790189 -1.4800403 0.72107947 0.91694427
000360 78 82 96 be c9 0a fa bf c7 49 c6 3e ca bb 45 3f
       -0.29396415 -1.9534541 0.38728163 0.7723967
000370 66 94 f6 be bf 29 65 bf 1c 1c 71 3e 18 81 6a 3f
       -0.48160094 -0.89516824 0.23545879 0.9160323
000380 15 00 91 be 16 5b 8e bc 46 6a db 3c bd 36 61 be
       -0.28320375 -0.017377418 0.026784074 -0.21993537
000390 5a 02 7a 3e 46 a6 75 3e ab 43 2a 3e 68 8c 8e bd
       0.2441496 0.2398921 0.16627376 -0.06960374
0003a0 41 a5 3a 3f 34 d5 a7 3e 15 2c f8 3d 73 96 4f be
       0.7290841 0.3277985 0.12117783 -0.20272236
0003b0 8d 87 4c 3f 53 14 98 3e b0 b6 f2 be 09 e2 96 be
       0.79894334 0.29703006 -0.47405005 -0.29469326
0003c0 60 f4 0e 3f f0 51 4c 3f 7d a9 08 bf 94 b9 59 bf
       0.55841637 0.79812527 -0.5338362 -0.85048795
0003d0 12 0a 06 3e 36 bd 84 3f 69 c4 3f 3e 5c d4 f2 be
       0.13089779 1.0370243 0.18727268 -0.47427642
0003e0 54 89 2c be ca ad 6d 3d d8 14 e8 be 1d 30 8f be
       -0.16849262 0.058027066 -0.45328403 -0.27966395
0003f0 3d 8c 82 be 13 cd 07 3f ec 04 b6 3e c4 4c d9 be
       -0.25497618 0.53047293 0.3555063 -0.4244138

conv1.bias f4 [10]
000000 fa 03 a7 bf 91 df f5 bf a3 44 1d c0 f7 ff a5 bf
       -1.3048089 -1.9208852 -2.4573143 -1.2968739
000010 68 be d7 bf a0 6f cf bf e0 f9 f7 bf 2b 83 18 bf
       -1.6854982 -1.620594 -1.9373131 -0.59575146
000020 cc 34 07 c0 16 f9 33 c0
       -2.1125975 -2.812078

conv2.weight f4 [20, 10, 5, 5]
000000 94 6d 79 3f 44 e3 34 3d 9c 59 0b bd 18 23 6d be
       0.9743283 0.04416205 -0.034021005 -0.23157918
000010 1f be ea bd d6 c5 87 3e cb 67 6b bd 69 34 00 bf
       -0.11462044 0.26518124 -0.05747203 -0.5007997
000020 52 b5 ba be 2e ad c1 3e 56 fa 93 3e 5e ef ac be
       -0.3646646 0.37827438 0.2890193 -0.33776373
000030 6a 21 5f bf 8d 8f 11 bf bf f5 11 3b b6 72 a0 3f
       -0.8716036 -0.56859666 0.002227172 1.2535007
000040 fe e7 0c 3f b4 0b 93 be 77 f3 f0 be 0e 22 c5 be
       0.5504149 -0.28719866 -0.4706075 -0.38502544
000050 3c f6 b2 3e 87 86 c7 3d c2 62 81 bd e8 fe 41 be
       0.34953487 0.09742456 -0.06317665 -0.18944895
000060 f0 17 0c bf ee 86 0d bd c5 a6 0a 3f f5 70 ad 3e
       -0.54724026 -0.034552507 0.5416072 0.33875242
000070 c5 aa 33 3f 63 0d 10 3c 88 02 ed bd bb 91 cd be
       0.7018245 0.008792254 -0.115727484 -0.40150246
000080 05 5b 82 be de 13 b2 be d9 1f 93 3e 74 d4 21 be
       -0.25460067 -0.34780782 0.28735235 -0.158037
000090 fa 28 21 bf 2b 29 59 be 11 7a 3b bf f1 20 9d 3d
       -0.6295315 -0.2120711 -0.73233134 0.07672299
0000a0 32 1e 41 3c 6a cd 4f be 6d ff 9c 3e 2e 39 ad 3c
       0.011786984 -0.20293203 0.30663624 0.02114543
0000b0 6c 89 ea bb 3a 7a 84 3b ac 74 16 bf 45 f8 93 3d
       -0.0071574952 0.004042891 -0.5877178 0.07225088
0000c0 e3 64 f0 3c 10 51 d4 be 47 a4 ea 3e c6 a3 c8 be
       0.029344982 -0.41468096 0.4582846 -0.3918745
0000d0 41 b1 9f be df f2 8b be d0 78 10 be 0d 3a fe 3e
       -0.31189921 -0.27333733 -0.14108586 0.49653664
0000e0 73 e3 ec 3d 5d 4a 17 be 5a b8 9c 3e f0 e7 b0 3d
       0.1156682 -0.14774461 0.306094 0.086379886
0000f0 2c 25 3c be 22 97 a8 be b1 01 53 3e 81 10 94 be
       -0.18373555 -0.32927805 0.20606114 -0.2891884
000100 2c 06 ec be e7 bb 91 be c8 81 f1 3e 8b 43 d1 3e
       -0.4609846 -0.2846367 0.47169328 0.40871844
000110 27 a2 9a bd 21 66 0b bf c6 31 57 bf c3 ac 4a bf
       -0.07550459 -0.5445271 -0.84060323 -0.79169863
000120 03 cf 89 be de a1 d2 be fb ad 3d bf 04 cc 1c bd
       -0.2691575 -0.4113912 -0.740936 -0.038280502
000130 eb 7e 10 3d 90 d6 05 be 1f 19 f8 3d b3 e9 c3 3e
       0.03527729 -0.1307013 0.121141665 0.38264236
000140 42 00 35 be 8e 0d bb 3d 9c f8 bf bd fc 64 4c 3d
       -0.1767588 0.09133445 -0.0937359 0.049900994
000150 4e 10 ce bd cd a2 cb be 7e 65 8b bd 20 39 11 bf
       -0.100617036 -0.39772645 -0.068064675 -0.5672779
000160 6a 04 1a be ff a9 32 be e2 3e f3 be 57 fd 5b be
       -0.15040746 -0.17447661 -0.47508913 -0.2148336
000170 14 eb 36 3d ef 54 42 be 5d 5f 2e 3d 30 50 a8 be
       0.04465778 -0.18977712 0.042571414 -0.32873678
000180 4a 29 7a bb 92 d6 42 3c 35 ee d3 3c fa f4 ed 3c
       -0.0038171583 0.011891978 0.025870422 0.029047478
000190 a7 9b 06 bf 68 ef 49 bf 83 d8 20 bd c1 a9 40 3e
       -0.52581257 -0.7888093 -0.03926898 0.18814756
0001a0 dc b9 21 3f ad 77 28 be 86 c4 05 bf 6b 82 2c be
       0.63174224 -0.16451903 -0.52252996 -0.16846626
0001b0 a2 c1 47 bf aa 6b f5 bd 44 40 01 3e 70 cf 15 be
       -0.78029835 -0.11983426 0.12622172 -0.14629912
0001c0 72 ff 10 be f3 d0 ec be ac ab 55 3d 3d c1 c5 be
       -0.14159945 -0.46253166 0.052165672 -0.38623992
0001d0 94 88 99 bd 85 69 b4 3e 17 f3 68 be fa ad ef 3d
       -0.07496753 0.35236755 -0.22748981 0.11703105
0001e0 8e c4 03 bf 01 80 45 be cd 69 53 be 68 05 a5 be
       -0.51471794 -0.19287111 -0.20645829 -0.32230687
0001f0 49 a7 0e be 2c d7 65 bf 99 ca fa be 36 80 5e be
       -0.13931002 -0.8978145 -0.48982695 -0.21728596
000200 46 89 5c bd 33 59 01 3c c5 48 09 3e 9a 79 a3 3f
       -0.05384185 0.007894802 0.13406666 1.2771485
000210 02 57 0e bf 19 1d c6 3e c9 71 02 3f 63 82 04 3f
       -0.55601513 0.38694075 0.5095487 0.51761454
000220 32 d0 5b 3f 64 af 27 be a7 61 d7 3e 8a 21 17 3e
       0.85864556 -0.163755 0.4206669 0.14758888
000230 ed ff d7 3d 2f 60 1d 3f 58 1a 2e 3c bb cd 0c 3f
       0.10546861 0.6147489 0.010626398 0.5500142
000240 02 ff e5 3e 64 3b aa bf c5 02 11 bf d1 73 fa 3c
       0.44921118 -1.3299375 -0.5664485 0.030572804
000250 bc 9c 60 be c1 9c b8 be 11 07 b3 3e c9 dc 59 be
       -0.2193479 -0.36057094 0.3496633 -0.21275629
000260 14 40 25 bf 9a 03 d8 bd 7a 36 d6 3c 76 3e 1a 3e
       -0.645509 -0.10547562 0.026149023 0.1506289
000270 f5 a9 36 be f6 e0 9f bd 65 8a d7 be 20 a8 28 3c
       -0.17838271 -0.0780658 -0.42097774 0.01029399
000280 63 bd 07 be c3 2c 26 bf c9 09 4e bf 04 4d d7 be
       -0.13255839 -0.6491205 -0.8048368 -0.42050946
000290 5c 9f 62 bd d4 d0 a6 3e 5f 33 49 bd 6c d5 e6 3e
       -0.05532776 0.32581198 -0.049121257 0.45084703
0002a0 ff 3f a2 be fa 9d 70 3e a1 07 0a 3f a6 54 3a 3e
       -0.3168945 0.23497763 0.5391789 0.18196353
0002b0 89 33 9c bc b9 df a5 bc d4 5d 0b 3e 8d 65 b6 bd
       -0.019067543 -0.02024828 0.13610011 -0.08906088
0002c0 57 bb 40 3d c3 fe d0 be f1 b2 c8 3c d8 36 14 3d
       0.04705366 -0.40819368 0.024499388 0.036185116
0002d0 bd 9f f2 3d 54 d8 2a 3f c9 70 86 be 8f 11 8e bd
       0.11846874 0.6673634 -0.26257923 -0.06936943
0002e0 d1 c0 55 be c6 ab 2b bd 12 4b d2 3e 8d 20 5a 3d
       -0.20874335 -0.041911863 0.410729 0.0532537
0002f0 af 6b 44 3e 27 50 cb bd 54 61 20 3d 64 00 c8 3e
       0.19181703 -0.09927397 0.03915532 0.39062798
000300 61 72 91 3e f5 8a 4a ba 19 26 06 bf f1 ae ac bd
       0.28407577 -0.00077263947 -0.5240188 -0.08431805
000310 f3 da 80 3c b3 48 ef bc 57 7d 1f bd 04 db 1b bf
       0.015729403 -0.02920947 -0.038937893 -0.60881066
000320 81 74 5d 3f 4f 3e 6b 3f 7f 52 29 3f 08 10 bf be
       0.86505896 0.9189195 0.66141504 -0.37316918
000330 63 58 93 bf 21 44 8d 3e a3 9b 5a 3e 23 59 d5 3e
       -1.1511348 0.2759104 0.21348433 0.41669568
000340 0b 46 6d bd 5a 7a 30 bf 3d 74 6b 3e bb 6f 6a be
       -0.057928126 -0.68936694 0.2299356 -0.22894184
000350 97 af 18 be 68 3d f7 be 0e 72 bd be 0c 50 26 3f
       -0.14910732 -0.48289037 -0.3700108 0.6496589
000360 b0 67 5f be 76 6d 1d bf 28 40 c9 be 3c eb 2d bf
       -0.21816897 -0.6149515 -0.3930676 -0.67937064
000370 bd 9f 8b 3e db ca a3 bd 1b 51 b7 bd 9e 5c 3e be
       0.27270308 -0.07997676 -0.089510165 -0.18590018
000380 5a 63 e3 bd e8 a6 ea 3e 25 d4 a7 3d 40 67 21 bf
       -0.11102934 0.45830464 0.0819476 -0.6304817
000390 d5 96 b8 be b5 b3 c7 be 0f 25 31 3e 97 74 ce 3e
       -0.36052576 -0.39004293 0.17299293 0.40323326
0003a0 46 90 3d 3e 75 d3 db 3d 1e 45 2d bd f9 00 f1 bd
       0.18512067 0.107336916 -0.042302243 -0.11767764
0003b0 d9 8d a0 3d 9d bd 30 be 28 92 0d be 77 3b 89 be
       0.07839555 -0.17259832 -0.13825285 -0.2680318
0003c0 9a fe 47 3e 3d 0c df 3c 74 cb 9f be e9 19 4d be
       0.19530717 0.027227515 -0.3120991 -0.20029415
0003d0 8a a5 cb be ea db b3 3d 8a c8 dd bd 73 ec 2b be
       -0.39774734 0.0878218 -0.108292654 -0.16789417
0003e0 6f b0 4e be 98 48 9f be 85 4c a2 bd eb 3c ca 3e
       -0.20184492 -0.31110072 -0.07924751 0.39499602
0003f0 ae 9a 1f be b9 15 66 bc 8c 98 c5 3e 76 dc 39 be
       -0.1558635 -0.014043265 0.38592947 -0.18150505

conv2.bias f4 [20]
000000 8f 67 c3 bf 34 e5 9d bf 7d 2b db bc 72 08 f0 3f
       -1.5265979 -1.2335572 -0.026754135 1.8752577
000010 ab 36 78 3e 4a d6 bd be f8 8f 2a 3f e6 8b 8e 40
       0.24239604 -0.37077552 0.6662593 4.4545774
000020 ef 7b c5 bf bf 3c 01 3f 88 fa ac bf 47 67 82 c0
       -1.5428447 0.50483316 -1.3513956 -4.075107
000030 2d e8 04 bf 1d 97 0d 40 96 c5 06 c0 80 55 b9 bf
       -0.5191677 2.2123482 -2.1058097 -1.4479218
000040 69 ac 8d bf 39 c3 44 40 9a f1 9f bf b5 47 c0 be
       -1.106824 3.0744154 -1.2495606 -0.37554708

fc1.weight f4 [120, 500]
000000 00 b9 8d be 19 6f 09 3d 50 58 e6 bd f7 94 ac be
       -0.27680206 0.033553217 -0.11247313 -0.337074
000010 98 0b 1d bb 3f 60 c5 bd bb 65 01 3e c9 d8 97 bc
       -0.002396321 -0.09637498 0.12636463 -0.018535988
000020 eb 24 aa bd 1a dd 4f 3e 20 73 92 bd 15 91 aa be
       -0.08307823 0.20299187 -0.071508646 -0.33313814
000030 bd 64 cd be d1 47 c9 be fa 30 9f be 9e c1 61 be
       -0.4011592 -0.39312604 -0.31092054 -0.22046515
000040 99 2b bc bd e4 87 94 3c 03 8d 21 be ec 39 56 be
       -0.09188003 0.018131204 -0.15776448 -0.20920533
000050 40 60 db be 1f f7 44 bd a6 e0 0a 3d da db 60 be
       -0.4284687 -0.048087236 0.033905648 -0.21958867
000060 b7 a8 5f 3e 82 8d 85 3e f1 96 8a 3e 85 5c 34 bd
       0.21841703 0.26084524 0.27068284 -0.044033546
000070 41 b7 71 bd e4 1c 0f 3f be 5d 61 bd 83 48 9d be
       -0.059012655 0.5590346 -0.05502104 -0.30719385
000080 8d 7d 01 bd a0 a5 fe 3d e3 f8 f1 3e 1e de ae be
       -0.031613875 0.12433934 0.47260198 -0.34153837
000090 ee 66 70 bd 39 4e 70 be d0 3d 62 be 44 bd 62 3e
       -0.05869191 -0.2346734 -0.22093892 0.22142512
0000a0 bf 05 a9 be 8b 24 41 3d c9 88 57 3e 90 66 63 bd
       -0.33012196 0.04715399 0.21048273 -0.055517733
0000b0 50 9b b8 3c 65 25 bb 3e 1c 26 c9 bd 6e c7 88 3d
       0.022534996 0.36551967 -0.09821722 0.06678663
0000c0 7b 3d 1e 3e 0f a2 c6 bd 94 30 67 bd 33 31 45 3e
       0.1545314 -0.09698879 -0.056442812 0.1925705
0000d0 44 5b 52 be dd cb 36 3e 20 51 4b 3e c4 2f 51 bd
       -0.20542628 0.17851205 0.19855165 -0.051070943
0000e0 1d 0a a0 3d 57 6e aa be fe a3 a2 3d 1c 06 0c bc
       0.07814429 -0.33287308 0.07941435 -0.008546378
0000f0 dd 01 e5 3d e5 f8 a7 3e bd a0 25 3d 46 13 a8 3a
       0.11181996 0.3280708 0.040436495 0.0012823127
000100 92 39 83 bc 11 91 3d 3b 8e 6e c0 3e e8 03 9f 3e
       -0.016018663 0.0028925578 0.37584347 0.31057668
000110 3f 75 d5 3d 9a 2a 21 3e 6e 27 43 be ec e3 e8 3d
       0.104227535 0.15738907 -0.1905801 0.11371598
000120 26 6c 94 3e 85 fd c1 bd 94 e1 5d be fc 6d 29 3e
       0.2898876 -0.09472183 -0.21668082 0.16545862
000130 67 cc b5 bd 1d 2d 17 3d 3f 14 8f be a7 31 85 be
       -0.08876877 0.036908258 -0.27945134 -0.26014444
000140 64 b3 60 3e fd d4 05 be 3f f6 23 bd b6 cb 04 bd
       0.21943432 -0.1306953 -0.04002976 -0.032420836
000150 4c a8 38 be e8 3c 8b bd 25 97 f2 3d a8 bb c2 3b
       -0.1803295 -0.06798726 0.11845235 0.0059427805
000160 e9 96 5c be 8d 5e 93 be 3d 54 3f 3e b4 68 6b 3d
       -0.21541943 -0.28783074 0.18684478 0.0574729
000170 26 26 1e 3e dd cd ee bd 14 0f de bd 8d 79 1a 3d
       0.1544424 -0.11660359 -0.1084272 0.037713576
000180 85 cc 62 be fb 10 19 be d9 7b 83 bd bc a6 ca 3d
       -0.2214833 -0.14947884 -0.064201064 0.09895083
000190 5a 59 9a 3d 3a 48 b3 bc 71 c1 8d 3d 0e fb d6 bd
       0.07536574 -0.021885026 0.06921662 -0.10497104
0001a0 33 0d 03 3e 68 5c 43 3d 9c f1 a1 bd a5 d5 04 3e
       0.12798004 0.047695547 -0.079074115 0.12972124
0001b0 25 da cd bd aa 28 13 3e 4c 37 0c be 93 08 e3 bd
       -0.100513734 0.14370981 -0.13692969 -0.1108562
0001c0 1f 1f 55 be 33 86 3a be e6 47 8a bb 91 f1 26 be
       -0.20812653 -0.18215255 -0.0042199967 -0.16303088
0001d0 ec f8 18 be 08 76 47 be 62 56 72 be 20 3d 0d be
       -0.14938706 -0.19478619 -0.23665765 -0.13792849
0001e0 54 eb 27 3d ca 48 f4 3d ed 43 83 3d 8e 97 0f 3d
       0.04099591 0.11927946 0.0640944 0.035056643
0001f0 ae 4e 4e be 1a fe 54 bb a7 ac 70 bd e2 e0 ce 3d
       -0.20147201 -0.003250009 -0.058758404 0.10101487
000200 c5 87 a8 bd e3 d3 d5 3e ff e4 88 bd db e0 26 be
       -0.08229021 0.4176322 -0.066843025 -0.16296713
000210 92 88 2c be 4f cf 55 bd 70 1d 0f 3d f1 64 7a 3d
       -0.16848972 -0.052199658 0.034940183 0.06113142
000220 b4 c0 90 be 0d 29 bc be cc 27 60 bd a8 ca df bd
       -0.2827202 -0.3675007 -0.054725453 -0.109273255
000230 17 02 c7 3d 2f 15 6d be f5 18 2c be e7 28 98 be
       0.097171955 -0.23152612 -0.16806395 -0.29718706
000240 7f 7a df bd aa 49 6a 3c 4f f1 86 be c7 38 50 3e
       -0.10912036 0.014299789 -0.2635598 0.20334159
000250 0c c5 3a 3c fb 7e 2b 3e cf 0d 0f be 16 c6 b5 3d
       0.011399519 0.16747658 -0.13970111 0.088756725
000260 e1 45 1e be e8 73 92 bb 03 17 c0 3e 83 5f 30 be
       -0.15456344 -0.0044693835 0.37517557 -0.17223935
000270 2c 3e 86 be 37 d3 ae be 94 87 a7 be dc 81 47 3e
       -0.26219308 -0.3414552 -0.32720625 0.19483131
000280 84 4f 10 3e c9 6b 8c be d0 be 27 be 6e 38 cc be
       0.14092833 -0.27425984 -0.16381383 -0.39886802
000290 5b 37 85 be 12 a3 95 3e 66 53 e3 3d 49 bf d6 3d
       -0.26018795 0.29225975 0.11099891 0.104857035
0002a0 63 5d 86 bb f1 ac 2b 3e e5 f7 30 3e 5b 98 69 3d
       -0.004100488 0.1676519 0.17282064 0.057030063
0002b0 f7 fd 1b 3e d2 8d 60 3e 3f 84 22 3f 12 81 ac be
       0.15233599 0.219291 0.6348304 -0.33692223
0002c0 e3 34 9b be 6c 7e bd be d0 8e ff bd e2 d1 16 be
       -0.30313787 -0.37010515 -0.12478411 -0.14728501
0002d0 84 33 89 bd 5e 54 52 be e4 36 db 3d af 96 90 be
       -0.06699279 -0.20539996 0.10703829 -0.28239962
0002e0 80 70 a0 be 05 6c f2 3d dc de 50 3e 4e 47 85 3e
       -0.3133583 0.11837009 0.20397514 0.26030964
0002f0 3f 23 ff bd 7c 3c 93 be 48 6d 96 bd 92 8a ea 3c
       -0.124578945 -0.28757083 -0.073450625 0.028630529
000300 d3 58 7b bd e4 c8 51 3d 34 cc 1a be d8 3c 86 3e
       -0.061364006 0.051216975 -0.1511696 0.26218295
000310 e9 49 21 bd 2c 2a af bc 19 03 5c 3d 2c 11 75 3d
       -0.039377127 -0.021382414 0.05371389 0.05983083
000320 3e 35 a5 3d fa b3 c2 3c e9 12 d0 3d af 50 7c 3d
       0.08066796 0.02376746 0.10159857 0.061600383
000330 d0 25 a5 bd d1 0d 98 be 07 01 63 be 35 49 84 bd
       -0.08063853 -0.2969804 -0.2216836 -0.06459276
000340 03 6f 19 bb 56 f9 37 be 7b 7a 85 be 06 c6 65 bd
       -0.0023412115 -0.17966208 -0.26070008 -0.056097053
000350 07 af 79 be 7f d6 30 be 93 04 42 be e9 de d4 be
       -0.24383174 -0.17269324 -0.18947057 -0.41576317
000360 b8 e0 45 be 16 bf c9 be 59 12 ea be 81 02 40 bd
       -0.19324005 -0.394036 -0.45717123 -0.046877388
000370 92 ba 3a be b4 58 d2 bd 8d 3b f7 be 8c 4b 77 be
       -0.18235233 -0.10270825 -0.4828762 -0.24149913
000380 bf 0c 7e be 07 fe 95 be 30 08 53 be 2d 87 aa 3d
       -0.2480955 -0.2929537 -0.20608592 0.08326564
000390 83 59 5b be 64 fa fa 3d 2f e7 b6 be 36 2a 6f be
       -0.21420865 0.122547895 -0.35723254 -0.23355946
0003a0 f9 e6 61 be 6e 97 51 be a2 53 2c bd 01 92 a8 bd
       -0.22060765 -0.20467922 -0.042071946 -0.08230973
0003b0 1d e5 94 be ac ea 51 3e 37 75 7b 3d aa 16 a4 bb
       -0.2908105 0.20499676 0.06139108 -0.0050075846
0003c0 8a 23 44 3d 27 76 81 be c6 3e df be 1f 71 97 be
       0.047885455 -0.25285456 -0.4360258 -0.29578492
0003d0 34 47 d5 bc 91 3c 2b bf 6f bc 65 be dc 72 47 be
       -0.026034929 -0.6688929 -0.22435163 -0.19477409
0003e0 c2 79 0c 3e 24 1e e3 bd 8a 73 5b 3d 61 40 91 be
       0.13718322 -0.11089733 0.053576984 -0.2836943
0003f0 1b 2b 4c bd 06 d0 b6 3b 8b 57 08 bd 19 ac 64 be
       -0.049845796 0.0055789975 -0.033286612 -0.22331275

fc1.bias f4 [120]
000000 bd 2d f2 3e a6 c5 2c 3d a7 f5 b8 3d 1f be f8 bc
       0.4730052 0.04218068 0.090312295 -0.030364094
000010 94 82 fd 3d e3 c1 a1 3e 8d f8 f4 3e a8 4a 76 3d
       0.123784214 0.31593236 0.4784588 0.06012979
000020 1f 3b 03 be 49 5f 7f be 6d f5 a5 bd 6c d9 0f be
       -0.12815522 -0.24938692 -0.08103452 -0.14047784
000030 a4 c3 a8 be be 67 9c 3d b5 3a 94 be df 82 49 be
       -0.32961762 0.07636975 -0.2895104 -0.1967883
000040 f0 7f ca 3d b3 be f3 3e e8 4f d3 3d 22 ad 1d 3f
       0.098876834 0.4760643 0.10317975 0.61592305
000050 f3 9a 9f be 37 eb f1 bd 94 1e 33 3f c6 5d fa 3d
       -0.31172904 -0.11812442 0.69968534 0.12224917
000060 c1 82 25 be 74 68 38 3f 45 40 1e 3c 1f 7b b4 be
       -0.1616316 0.7203438 0.009658878 -0.35250184
000070 94 78 7e 3e 4d 2f 5f 3d 19 88 a9 3e 92 ec 50 be
       0.24850684 0.05448847 0.33111647 -0.20402744
000080 fd c5 0b 3f af 97 f5 3e 3f 4b 1a be 53 d6 62 3d
       0.5459898 0.47967288 -0.15067767 0.055380177
000090 b6 58 cc 3e 25 83 16 bf 09 52 81 3d 80 5f f9 3c
       0.3991143 -0.5879386 0.06314475 0.030441046
0000a0 62 76 0b be 92 46 4c 3e 63 5d 30 be a5 f3 9c bc
       -0.13619378 0.19948795 -0.17223124 -0.019159148
0000b0 d5 a9 12 3f ce c1 b4 be 7c 21 13 be dd cb 70 bd
       0.57290393 -0.3530411 -0.14368242 -0.05878817
0000c0 c1 5a 19 be 2b 51 cb 3c 74 c5 48 be 28 f3 29 3e
       -0.14976026 0.024818977 -0.19606572 0.16596663
0000d0 96 00 30 be eb 4c 95 be ef 31 77 bd d1 da 5d be
       -0.17187724 -0.29160246 -0.060350355 -0.21665503
0000e0 12 24 8b bd 52 50 78 be 97 e1 46 be 3a 64 c8 bd
       -0.06793989 -0.2424939 -0.19421993 -0.09784742
0000f0 22 5b ce 3e 99 3a 27 be 87 55 bd 3e a5 f6 36 be
       0.40303904 -0.16330947 0.36979315 -0.17867525
000100 42 1d 2e 3d 7a cb 9b be 42 8a 69 3e a9 22 98 bd
       0.04250837 -0.30428678 0.22806647 -0.07428486
000110 21 46 3b be ff f1 57 bd 70 a4 ea be 6e be 28 3e
       -0.18288471 -0.05272102 -0.4582858 0.16478893
000120 20 1f d2 3e 12 4a bf 3d f1 1c c0 be 97 0a bc 3e
       0.41039371 0.093403 -0.3752208 0.3672683
000130 dc f2 c3 bd 81 31 4c 3d 86 90 ba be 61 4a 80 bd
       -0.09567806 0.049851898 -0.36438388 -0.06264187
000140 0b 74 73 3d 7e c8 f0 bd 8a 07 db bd 04 62 95 be
       0.05943684 -0.11756991 -0.10694797 -0.29176342
000150 14 fe 24 bd 18 bf 84 be 34 68 04 be 35 1b 9b be
       -0.04028137 -0.25927043 -0.12930375 -0.30294195
000160 8c b5 29 be 9a d4 32 3e 4b b7 0c 3e 2c e7 ec be
       -0.16573161 0.17463914 0.13741796 -0.4627012
000170 77 da 98 bd f5 4a f3 be 45 11 06 be 24 22 8f be
       -0.07463544 -0.47518125 -0.13092525 -0.27955735
000180 b4 b1 8e bd 3c 63 a9 be 88 e9 d2 be 55 72 ba 3e
       -0.06967488 -0.33083522 -0.41193795 0.36415353
000190 96 db 91 bd a4 cd ae be fc 14 a5 3d a4 80 88 be
       -0.07121961 -0.34141266 0.08060643 -0.26660645
0001a0 6d da 45 bd 83 4d 28 3c 85 49 b2 bd 44 bf 5a be
       -0.04830401 0.0102723865 -0.08705429 -0.21362025
0001b0 fe ac ab 3e 32 55 f1 3c 22 40 c6 3d 9d 6f 4d bd
       0.3353042 0.02945957 0.09680201 -0.05015527
0001c0 0e 63 f7 3e da 2d 42 be 33 3b 92 be d2 17 0e 3e
       0.4831776 -0.18962803 -0.2856079 0.13876274
0001d0 aa fa 96 be 47 19 2b be c2 72 7c 3d 33 8d 9d bd
       -0.29488117 -0.16708861 0.06163288 -0.07692947

fc2.weight f4 [84, 120]
000000 8b 07 a1 be 30 7f 23 3e b4 1d 41 be 9e 4f f9 bd
       -0.31451067 0.15966487 -0.18858987 -0.12173389
000010 ca 40 33 3a f9 61 27 3e 62 65 a2 3d bf ff 03 3e
       0.00068379624 0.16345967 0.079294935 0.12890528
000020 2b ae 74 be 57 cf df 3d 7a c7 6c be ac 83 30 3c
       -0.23894565 0.10928219 -0.2312297 0.0107735805
000030 33 d5 05 be e2 75 1c be 93 f3 d8 bd c6 19 78 be
       -0.1306961 -0.15279344 -0.10593333 -0.24228582
000040 28 81 d2 bd 39 4d 33 3d 50 e1 c8 bd 92 08 98 be
       -0.10278541 0.043774817 -0.098086 -0.2969404
000050 90 cb e1 be c9 d2 88 3e f1 55 3d bd 75 c7 df be
       -0.44100618 0.26723316 -0.04622454 -0.4370686
000060 ef 45 1f be 36 93 78 be 77 94 94 3c 38 50 07 3e
       -0.15554021 -0.24274907 0.0181372 0.13214195
000070 65 99 19 3e 86 4b e3 be cf 7c 52 be a7 a5 d1 be
       0.14999922 -0.44393557 -0.20555423 -0.40946695
000080 56 6f 58 bd 85 e1 41 be 96 28 11 be 68 a5 84 be
       -0.052840553 -0.18933685 -0.14175639 -0.25907445
000090 ca 9d c0 bd 7a 63 cc be f2 54 01 be 42 58 81 be
       -0.09405096 -0.39919645 -0.1263006 -0.25262648
0000a0 8f 66 52 bd 9d 8b ad be b1 df 9e be bf 0f 82 be
       -0.05136734 -0.3389558 -0.31030038 -0.25402638
0000b0 fc 45 c8 be 70 4b e2 bc a2 d3 84 be 5c 35 4a 3d
       -0.39115894 -0.027623862 -0.25942713 0.049367294
0000c0 8f 02 01 be 20 cc 9c be 17 80 4a be 8b 30 b1 be
       -0.12598632 -0.30624485 -0.19775425 -0.34607348
0000d0 99 f3 2d bb 8d 06 ff be 86 29 c8 bd 5d a9 36 be
       -0.00265429 -0.49809685 -0.09773545 -0.17838044
0000e0 6e d4 8a be 5b 1f 30 be f6 7d 6c be f7 e4 e5 3b
       -0.27115196 -0.17199461 -0.23094925 0.00701582
0000f0 93 34 42 be d2 22 9d be ee a0 a2 bd 36 8c d2 be
       -0.18965368 -0.30690628 -0.07940851 -0.41122597
000100 fb dc 91 be 8e c5 61 be bd 89 56 bd 65 85 ff bd
       -0.28488907 -0.22048017 -0.05237745 -0.12476615
000110 7e 5f 39 be 03 b7 80 be 4b 15 ad be 94 f3 48 be
       -0.18102834 -0.25139627 -0.33805308 -0.19624168
000120 03 56 99 bd e4 8f b0 be 04 8e 54 be c7 98 4a 3d
       -0.074871086 -0.3448478 -0.207573 0.049462106
000130 e2 9d 20 be 49 5a 27 3d c2 93 87 3d 9f e2 93 bb
       -0.15685228 0.040857587 0.066199794 -0.0045130993
000140 66 1a 6b be 39 b8 87 be c5 dc 0f 3e 00 54 33 be
       -0.22959289 -0.26507738 0.1404906 -0.17512512
000150 0a 7a 67 be e1 9e 7c 3d b3 aa db 3d 49 18 84 be
       -0.22605148 0.061674956 0.10725918 -0.25799778
000160 c4 fe 88 be 97 fc d6 bd 96 ec 2a be b2 89 07 bd
       -0.2675687 -0.104973964 -0.16691813 -0.0330903
000170 70 f1 e0 bd 59 cc 19 be 46 1a 46 be 45 c3 c8 bd
       -0.109835505 -0.15019359 -0.1934596 -0.0980287
000180 b7 fc 1d 3e 48 2e b1 be 97 93 0b be e7 07 a7 bd
       0.15428434 -0.34605622 -0.1363052 -0.08155804
000190 27 2c f1 bc 62 fe 2e 3e ba c6 a0 bd 43 fe 8c bd
       -0.029439999 0.17089227 -0.07850404 -0.06884434
0001a0 28 d3 9f 3d 80 57 8b bc 6e 47 5b be bb f9 39 be
       0.07803947 -0.017009497 -0.21413967 -0.18161671
0001b0 b9 f0 44 bd fc 32 d4 bd 84 7e 1b be 1e d2 4f 3d
       -0.048081134 -0.10361287 -0.1518498 0.050737493
0001c0 b2 c0 74 be 42 a0 3c be e7 eb 9b be 98 24 c2 bd
       -0.23901632 -0.18420509 -0.30453417 -0.09479636
0001d0 f3 86 3e be 8e 18 ea bc d4 a7 b8 bd e9 65 51 be
       -0.18606167 -0.028576162 -0.09016386 -0.20449032
0001e0 79 44 99 bd 5d 0a 07 be ee 58 ee bd 4e a8 30 be
       -0.07483763 -0.13187547 -0.11638056 -0.17251703
0001f0 ee 00 e3 bd b2 ea 1c be a7 a6 af bd 5c a6 e3 3d
       -0.11084162 -0.15323904 -0.08576708 0.11115715
000200 38 eb 6d be a7 bd 07 3d 5f 27 33 be 7a 75 62 be
       -0.2323426 0.03313985 -0.17495488 -0.22115126
000210 6f 6b ff bd bf dc 3d bd 05 3a e4 bd 25 ce 29 be
       -0.12471663 -0.046353098 -0.11143879 -0.16582544
000220 1d 31 a7 bd 92 17 12 be a7 f2 a4 be 5b 6c 96 be
       -0.081636645 -0.14266804 -0.3221638 -0.29379544
000230 aa 77 b5 be 5c bc ab bd 47 07 df bd 80 d0 d8 bc
       -0.3544286 -0.08385536 -0.1089006 -0.026466608
000240 ea a3 e6 bd 66 a8 51 be c3 83 2e be e6 e2 d7 bd
       -0.11261733 -0.20474395 -0.1704245 -0.10541324
000250 07 3f e1 3c 94 cb c3 be 22 5d 75 be 32 0e d8 3b
       0.027495874 -0.38241255 -0.23961309 0.006593489
000260 8e d4 5b bd b2 63 36 3e 70 96 41 bd d7 83 7b be
       -0.053669505 0.17811468 -0.04726261 -0.24562012
000270 04 43 5a be bc 59 4a be c2 57 23 be f3 63 89 bd
       -0.21314627 -0.19760793 -0.15951446 -0.06708517
000280 9e a9 8f bd 30 89 89 be df 0c 7b be 47 6a 51 bb
       -0.07014774 -0.26862478 -0.24516629 -0.0031954215
000290 02 be 68 be 7e a8 51 be 52 0f b0 3d ef 5a bf bd
       -0.22728732 -0.20474431 0.08596672 -0.09343516
0002a0 43 7b 39 be 6c 83 f9 3d 2c d0 a6 be 2d 35 1c be
       -0.18113427 0.1218327 -0.32580698 -0.1525466
0002b0 6b e0 56 bd 00 a4 d2 bd a2 cc 09 be 6c ea 9a bd
       -0.052460115 -0.10285187 -0.13456967 -0.07564244
0002c0 eb 05 6f 3d bb 5e de bd ad d6 91 be fb 87 cb bd
       0.058355253 -0.10857912 -0.28484097 -0.099380456
0002d0 b4 da 36 be a1 94 a6 bd 0d 59 6a be 6f ef 09 be
       -0.17856866 -0.081338175 -0.22885533 -0.13470243
0002e0 8f c9 3d be 87 57 ac bd ec 7a 82 be 49 e9 2b be
       -0.1853392 -0.08415132 -0.25484407 -0.1678821
0002f0 dc ad 19 be c9 e0 67 be 10 ff 5a be 08 3e d3 3d
       -0.15007728 -0.22644342 -0.21386361 0.10314566
000300 3c 71 06 bd 0a 7d 1b be 5f 40 84 be ef 86 26 be
       -0.032822832 -0.15184417 -0.2583036 -0.1626241
000310 02 35 a1 be e3 79 e8 bd 31 27 10 be 6d 6a c9 3d
       -0.31485754 -0.11351373 -0.1407745 0.09834752
000320 11 b4 07 3d 40 80 b1 bd bc b8 57 be f4 40 08 be
       0.03313071 -0.0866704 -0.21066564 -0.13306028
000330 1f 57 4d bd fa de 97 be 3d 7b 6b be 84 1d 9c be
       -0.050131913 -0.29662305 -0.2299623 -0.3049127
000340 df d7 94 3d a0 93 08 bd a6 79 7e 3a ff 36 d6 bd
       0.07267737 -0.03334391 0.0009707458 -0.104597084
000350 cd 64 8b be 5b 03 eb bd fd 70 c2 bd 88 b1 27 bd
       -0.27225342 -0.114752494 -0.09494207 -0.04094079
000360 7d e3 42 bd 65 c8 84 bd c1 e1 09 be c9 0e ea bc
       -0.04758023 -0.06483535 -0.13465025 -0.028571503
000370 15 de fa bd 51 c9 17 3e fe c5 28 be f6 28 18 bd
       -0.1224939 0.1482289 -0.16481778 -0.03714844
000380 b0 05 78 3c e8 79 52 bd bc ce 00 3d 56 0b af bd
       0.015138075 -0.05138579 0.031447157 -0.08547084
000390 22 0c 8c be da 16 60 be d0 f7 fd bd ae 69 c2 ba
       -0.27353007 -0.21883717 -0.12400782 -0.001483252
0003a0 b4 3d 0b be af b4 4f be 7b 4d cc bd 04 fd 16 be
       -0.13597757 -0.20283769 -0.09975716 -0.14744955
0003b0 5d 28 34 be 7a 89 c8 bc 12 8f 53 be dc 7f 39 be
       -0.17593522 -0.024479616 -0.20660046 -0.1811518
0003c0 f7 3e cd bd 72 4b 30 be 8f 97 85 bd b0 39 0f 3e
       -0.10021775 -0.1721628 -0.06523048 0.1398685
0003d0 34 64 49 be 5c 29 7f be d9 26 d1 be f3 71 ae be
       -0.1966713 -0.24918121 -0.4084995 -0.3407131
0003e0 8d 5e 24 be 2b 77 57 3e 87 12 be be d2 22 70 be
       -0.16051693 0.21041553 -0.3712351 -0.23450783
0003f0 b9 98 2d be 5d 2e 84 bd ee 20 cb be 96 31 41 be
       -0.1695279 -0.064541556 -0.3967356 -0.18866572

fc2.bias f4 [84]
000000 99 78 13 3e aa 16 9c bd 53 57 47 bb 7a 90 d7 bd
       0.14401473 -0.0762151 -0.003041704 -0.105256036
000010 0f 08 61 3f 49 db 59 3e 3d 0c 8a 3e 37 85 5c bd
       0.8790292 0.21275057 0.26962462 -0.05383798
000020 7e 36 82 3e 2f 0e c8 3e 74 1c 60 bd 4d 73 99 be
       0.254322 0.3907332 -0.054714635 -0.2997078
000030 61 69 8f 3f bf 04 01 3d 24 4c b7 be 39 c8 4c 3f
       1.1204034 0.031498667 -0.35800278 0.79993016
000040 62 e9 a2 be fc cd ee 3c ca dd 2d 3e 18 bd b8 3e
       -0.31818682 0.029150955 0.16979137 0.36081767
000050 ad 85 9b 3e 19 d6 78 3e 23 f2 63 bc 38 a9 7f 3e
       0.30375424 0.24300422 -0.01391271 0.24966896
000060 41 59 32 3c a3 ea 02 3f b8 b2 fc 3c e9 dc c2 3c
       0.010885538 0.5113928 0.030846938 0.023786979
000070 c8 c1 33 3f b2 b7 98 3e 35 cd ea 3d 9b 2d a7 3e
       0.7021756 0.29827648 0.114649214 0.32651982
000080 2b c4 3c bd b7 90 5a 3f c5 aa 86 be 7f 12 0e 3f
       -0.046085518 0.8537707 -0.26302162 0.5549697
000090 a1 99 33 3f 28 b9 57 3e 54 5d fc 3e 42 47 c1 3e
       0.70156294 0.21066725 0.49289954 0.37749678
0000a0 ad 9a 90 be 8f b7 09 3e 2d 7d 4d be d2 ea 96 3f
       -0.28243008 0.13448928 -0.20067282 1.1790411
0000b0 8f fc 06 3f cb e9 b2 3e 70 6c 80 3f b4 c0 99 3e
       0.52729124 0.34943995 1.0033092 0.30029833
0000c0 fb c1 90 be 44 5a bb 3e 96 50 61 3f e3 c6 75 3e
       -0.28272995 0.36592305 0.8801359 0.2400165
0000d0 7b e9 d3 bd c9 d6 92 3d 14 7d fc 3c d6 1e e8 3e
       -0.10347267 0.07169873 0.03082136 0.45336026
0000e0 b7 f6 4a be 5a a0 93 bd ba 62 be 3c d3 69 7d be
       -0.19820677 -0.07208319 0.023240436 -0.247474
0000f0 2a 6b 24 3f 66 f9 ab 3d b7 d6 04 bf bd 86 15 3c
       0.6422602 0.08397178 -0.5189013 0.009126362
000100 f1 24 79 3f 0d b5 d4 bd 9e dd 5d 3e 1a 63 eb 3d
       0.97321993 -0.10386095 0.21666571 0.114935115
000110 6e 7f e2 bc 5d 51 48 bc 57 cb 20 3e ef ba 9e 3f
       -0.027648654 -0.01222643 0.15702568 1.2400798
000120 40 0b d0 bb 96 1c 29 bc aa 98 d6 be 59 0f 39 3f
       -0.0063489974 -0.010321757 -0.41913348 0.72289044
000130 e6 f9 36 be da f7 06 3f 89 d4 82 be 8f 26 94 be
       -0.17868766 0.5272194 -0.25552776 -0.28935668
000140 d1 0d 19 3e 8a 0e 8e be 92 23 e0 3e 8f 02 0a bf
       0.14946677 -0.27745467 0.43777138 -0.53910154

fc3.weight f4 [10, 84]
000000 73 59 d2 bd 22 d6 54 3d f7 f5 a2 3d 81 97 9f 3d
       -0.10270967 0.051962025 0.0795707 0.07792569
000010 03 58 25 be 76 a6 b7 bd 9a 60 16 3d d9 38 88 3a
       -0.16146855 -0.08967297 0.03671322 0.0010392918
000020 d7 a1 47 be 82 3c 39 be 8e 85 c5 3d 2e 83 bf bc
       -0.19495331 -0.18089488 0.09644614 -0.023377981
000030 57 68 8e be 8a 2e 41 3e 60 6b 5a bd eb 94 8f 3e
       -0.2781398 0.1886541 -0.053325057 0.28043303
000040 45 8b 18 3d e6 b1 ae bc 94 35 49 3e b0 8f cf 3c
       0.037242193 -0.021325063 0.19649345 0.02533707
000050 35 ab b8 bc 7c 7d 85 3c 94 b4 c7 bd 12 2f 84 3c
       -0.022542575 0.016295187 -0.097512394 0.016135726
000060 c5 0e 34 3e aa b1 b2 3d cd 7d bb be a9 86 21 be
       0.17583759 0.08725293 -0.36619416 -0.15774025
000070 67 65 93 bd e1 b8 81 be 53 71 8e bd 97 4d 83 bd
       -0.07197075 -0.25336364 -0.06955209 -0.064112835
000080 00 54 c0 3d 32 90 85 3c 0c 5c f2 bd 3e 32 a0 3a
       0.09391022 0.01630411 -0.11833963 0.0012222005
000090 e7 07 60 3d b2 44 6b be 1e 6e ac 3e 38 e7 14 3e
       0.054695036 -0.22975424 0.33677763 0.14541328
0000a0 c0 b7 c4 bd 27 e6 26 bd 05 f1 7d 3b d4 10 38 be
       -0.0960536 -0.040746834 0.0038748395 -0.1797517
0000b0 e8 d9 03 3e 78 3d 14 bd 0c 90 93 be c7 f5 09 3d
       0.12876093 -0.036191434 -0.28820837 0.033681657
0000c0 6b 61 2e 3c d6 4a 26 be 59 19 e3 bd d0 f8 7a 3e
       0.010643343 -0.16239485 -0.11088819 0.24508977
0000d0 be 19 0b be f3 e9 42 bd ea 3b ea 3d 77 6d c4 3d
       -0.13584039 -0.047586393 0.11437209 0.09591191
0000e0 82 5c 05 bd a9 05 2f 3d 13 bf 2d 3a bd 43 f6 3c
       -0.032558925 0.042730007 0.00066278985 0.030061597
0000f0 1f cb 95 3c 97 2c f6 bc 90 f8 51 3d dc dc 47 be
       0.018285332 -0.030050559 0.05126244 -0.19517845
000100 1e 71 75 3e 16 17 01 3e 2a 20 39 be 92 ee cb 3b
       0.23968932 0.12606463 -0.18078676 0.006223508
000110 f3 f4 b4 bd ad 98 16 bd c9 2f ad 3d 2d 4f 13 be
       -0.08835783 -0.036766697 0.0845638 -0.14385672
000120 c1 07 84 3c f0 09 bb 3d cb 21 b2 3d c2 d0 71 3c
       0.016116979 0.09132755 0.08697852 0.014759244
000130 67 6e 2b be d5 66 e2 bd ba 17 4b be 7b 43 34 bd
       -0.16741334 -0.1105477 -0.1983327 -0.044009667
000140 cc 30 64 3d 7c 6d 24 be d1 b9 30 3e ec 29 e1 3d
       0.0557106 -0.1605739 0.17258383 0.10994324
000150 fe 34 9d bd 0a 16 1e be c7 7b 9f bd 22 47 2d 3e
       -0.07676123 -0.15438095 -0.077872805 0.16921666
000160 54 93 2c be c0 45 62 be d4 d8 2d 3d 0f 26 13 bd
       -0.16853076 -0.2209692 0.04244311 -0.035924967
000170 c8 e2 90 3d 0b 05 f1 3d cf 6e c1 bd 67 9e b9 3d
       0.07074505 0.1176854 -0.09444963 0.09063416
000180 2a 9b 79 bc 55 6b 92 be e5 70 c1 bd 1d b4 76 3d
       -0.015234748 -0.28597513 -0.09445361 0.060230363
000190 82 db 21 3e 2d f9 69 bd 4c 6c a8 3c e4 d6 37 be
       0.15806392 -0.0571224 0.020559452 -0.17953068
0001a0 a8 dd 7a 3e 19 f2 da 3d 0a 6b 8d 3d 9c f5 86 be
       0.24498618 0.10690708 0.06905182 -0.2635926
0001b0 4a 68 a3 be fb 2f 68 3e 8c f5 fa bd 3c 4d 1a 3e
       -0.31915504 0.22674553 -0.122538656 0.15068525
0001c0 23 31 f2 bb 58 9b e1 bc e3 86 1e be 7b 0d b3 be
       -0.0073911115 -0.027539894 -0.15481143 -0.34971222
0001d0 b6 9d ab bd a0 dd a1 bd 00 cd ae 3d 33 c7 14 3b
       -0.0837969 -0.079036 0.085351944 0.002270174
0001e0 c2 6e dc 3d 2b 56 f4 bc 76 3f 7d 3c 0b b0 c1 3e
       0.10763313 -0.029826244 0.015457025 0.37829623
0001f0 42 84 5a 3d 02 23 15 bb 29 e5 80 3e f6 65 af bd
       0.053348787 -0.0022756462 0.25174835 -0.085643694
000200 72 9c 5f be 42 51 04 be a6 c9 e6 be fb 00 29 be
       -0.21837023 -0.12921622 -0.4507572 -0.1650428
000210 12 31 ec 3c 08 82 3e 3e 05 69 b8 be 4d 4f 15 be
       0.028831992 0.1860429 -0.36017624 -0.14581032
000220 7b 26 b0 3c fd 30 f9 3d 0a d4 04 3e aa a7 84 3d
       0.021502724 0.12167547 0.12971511 0.06477292
000230 b1 e1 33 3d 49 96 27 be 7f ef f1 bd 54 80 ae 3e
       0.043916408 -0.16365923 -0.118132584 0.34082282
000240 ac 88 b7 3d 7e 39 90 3e 33 a8 0c 3e c3 3b 31 be
       0.08961615 0.28168863 0.13736038 -0.17307954
000250 21 50 fe 3d d0 5e 5d be f4 9a 6a be b7 34 c0 bd
       0.12417627 -0.216182 -0.22910672 -0.093850546
000260 d0 6b 1e 3d de a2 05 be 32 4f 63 3d 36 e3 dd be
       0.038677037 -0.1305041 0.05549545 -0.4333741
000270 11 46 57 3d af ca 34 3c 53 87 a9 bd 4d 8f 90 be
       0.052557055 0.011034652 -0.08277764 -0.2823433
000280 8c 86 d0 3c 52 ee 47 bd 55 e6 e5 3d 49 02 1b 3e
       0.025454782 -0.048811264 0.11225573 0.1513759
000290 fe 8a f3 3c 84 42 02 3e 03 1e 60 3d c8 d8 16 be
       0.029729363 0.12720686 0.05471612 -0.14731133
0002a0 7d c3 31 3e 31 5a 0f bd 8d 61 5e 3e 01 be 3b 3d
       0.17359729 -0.034998123 0.217169 0.0458355
0002b0 f5 46 a1 3e e2 b1 af 3e 16 35 03 bd c7 74 9f 3d
       0.31499448 0.343154 -0.03203305 0.077859454
0002c0 da b2 b9 3c 95 d2 db bd 5f 9b 80 3d e9 b8 b4 3d
       0.02266829 -0.10733525 0.06279635 0.08824331
0002d0 9b 34 2a 3e 23 d6 03 3e 88 ba 6a 3e 28 33 ea 3c
       0.1662163 0.12874655 0.22922719 0.028588846
0002e0 4b d5 40 be 20 66 09 3e 2b 54 1e bd 48 ce 2f 3c
       -0.18831365 0.13417864 -0.038654488 0.010730334
0002f0 20 45 14 be c2 87 28 be 05 a8 13 bd b8 91 2d 3e
       -0.14479494 -0.16458037 -0.036048908 0.16950119
000300 ff ad 33 3d 5c 3b 57 bd 02 76 94 bc 80 c6 c5 b8
       0.043867107 -0.052546844 -0.018122677 -9.4306655e-05
000310 cc c7 5a bc a4 4e 86 bd e2 fc 17 3e 8f 34 6b 3d
       -0.013353299 -0.06557968 0.14842561 0.05742317
000320 e8 6e aa 3c 1a e8 43 3d b7 ea 2c be 1e ef f8 bc
       0.020804837 0.04782877 -0.16886412 -0.030387457
000330 c1 b6 96 bd f6 fc 8e bd 27 cc 00 3e e0 90 38 39
       -0.07359076 -0.06981842 0.12577878 0.00017601578
000340 0b a7 36 bd 83 17 a4 3d 21 01 7c be 86 c1 b2 3d
       -0.0445929 0.08012297 -0.24609806 0.08728318
000350 1b 58 86 3e 4b 5b 05 3e f5 53 cc 3e 03 d5 cd 3c
       0.26239094 0.13023107 0.39907804 0.025125986
000360 5b 91 1e 3d f8 23 13 bd 83 c3 34 3c 4f 13 3c 3e
       0.03871284 -0.035922974 0.011032942 0.1836674
000370 12 07 d5 bd 99 3f 1f be e2 ce 75 3d 68 3a 02 3d
       -0.10401739 -0.15551604 0.060011752 0.03179398
000380 97 de 18 3d d6 6f 2b 3e da d5 5a 3e 2e 09 3e 3b
       0.037321653 0.16741881 0.2137064 0.002899717
000390 a3 d8 b9 bd 6f fd c2 bd 12 9f 99 3c a5 c4 47 3b
       -0.09074523 -0.09520995 0.018752608 0.00304822
0003a0 d4 42 c4 3b 47 f1 60 3e e7 a4 d3 3d c5 cc 10 be
       0.005989412 0.2196704 0.10334187 -0.14140613
0003b0 a1 51 25 3e 75 c7 74 3e 8b 60 54 3d a8 23 a6 3d
       0.1614442 0.23904212 0.051849883 0.0811227
0003c0 6d b4 e8 3b 4d 6b a4 3d ac 51 e0 bc 88 3c 16 bd
       0.0071015866 0.080282785 -0.027382694 -0.03667882
0003d0 8e 46 27 3e a3 30 1a be a2 15 18 3b 90 d4 62 bc
       0.16335508 -0.15057616 0.0023206254 -0.013844624
0003e0 18 7b 87 3d 16 a9 af 3d 26 75 3c be a0 a2 4f 3a
       0.06615275 0.085771725 -0.18404064 0.00079206564
0003f0 89 9e a2 3d 2c 53 00 3e 59 cb 15 3c 81 05 64 bd
       0.079403944 0.12531728 0.00914272 -0.05566931

fc3.bias f4 [10]
000000 a9 32 06 3e 84 89 bd be 55 9c 43 bd e8 5c d1 3e
       0.13105263 -0.3701898 -0.04775651 0.40891194
000010 e2 dd d4 3d 6e 06 91 3d 2b 9c 58 be cd 8f 93 be
       0.10393883 0.070813045 -0.21153323 -0.2882065
000020 0b 53 ed 3d bd 1b 01 3e
       0.11588105 0.12608238
